Self_Driving_Car_Updated/last_brain.pth (torch, 194667 bytes, 24 tensors)

fc1.weight f4 [30, 5]
0	0x3dcaf111	0.09909261
1	0x3e50bd8e	0.2038481
2	0x3e83e4db	0.2576054
3	0xbe7e257a	-0.24818984
4	0xbe07cd3b	-0.13261883
5	0x3ee8472d	0.45366803
6	0xbea38e3f	-0.31944463
7	0xbfdb6f47	-1.7143334
8	0x3dbba65a	0.091625884
9	0x3eb2ec0c	0.34945714
10	0x3f181ffd	0.5942381
11	0xb9cb55f2	-0.00038783211
12	0xbeb2049e	-0.34769148
13	0xbee17776	-0.44036454
14	0xbe856d3e	-0.26059908
15	0xbeb9e34e	-0.36306232
16	0x3e349092	0.17633274
17	0xc0c431a6	-6.1310606
18	0xbed24488	-0.4106791
19	0xbee436f0	-0.44573164
20	0x3eafb2a4	0.3431598
21	0xbe5c3733	-0.21505432
22	0x3de5dfc5	0.11224321
23	0xbe94f2ec	-0.29091585
24	0xbed0f4da	-0.40811807
25	0x3ec33f2b	0.3813413
26	0xbebf37dd	-0.37347308
27	0x3dc58924	0.09645298
28	0x3e5add8d	0.21373577
29	0xbed31091	-0.41223577
30	0x3e8cc05b	0.27490506
31	0x3e5c020d	0.21485157
32	0x3e030532	0.1279495
33	0xbee17f0e	-0.44042248
34	0x3eb59394	0.35464156
35	0x3c433f0b	0.011916886
36	0x3c0a330f	0.008435025
37	0xbe85662f	-0.26054522
38	0xbea9d867	-0.33172914
39	0x3e14b4dd	0.14522119
40	0xbe2fc656	-0.17165503
41	0x3e9e9fd5	0.30981317
42	0xbe7ab2d5	-0.24482282
43	0x3e37b998	0.17941892
44	0xbc9044a3	-0.017610854
45	0xc048e8ae	-3.1392016
46	0xbd951224	-0.07278851
47	0xbf068561	-0.5254727
48	0xbe443af6	-0.19163117
49	0xbec4e7d7	-0.3845813
50	0xbf7b49ca	-0.9815947
51	0x3e2bf795	0.16793664
52	0x3d46785d	0.04845463
53	0x3eb281fc	0.34864795
54	0xbe130ca9	-0.14360298
55	0xbe177494	-0.14790565
56	0xbea8bb15	-0.32955232
57	0xbeb2ee15	-0.34947267
58	0x3dc7eb70	0.09761703
59	0x3c65fc20	0.014037162
60	0x3e9f648d	0.31131402
61	0x3df17c61	0.117913015
62	0xbee0973f	-0.43865392
63	0xbe0617c4	-0.13095003
64	0x3d691e5b	0.056913715
65	0xc04fb220	-3.245247
66	0xc0ab272f	-5.348533
67	0x3d06c766	0.032905005
68	0xbba0b2e0	-0.004904136
69	0xbd7adaee	-0.061243944
70	0xbe2ef73b	-0.17086498
71	0xbf514ccc	-0.8175781
72	0xbe0ef243	-0.13959603
73	0xbb674554	-0.0035289126
74	0xbd30450c	-0.0430346
75	0x3de64794	0.11244121
76	0xbe223efa	-0.15844336
77	0xbe967cc7	-0.29392073
78	0x3e20eaf1	0.15714623
79	0xbe45aa27	-0.19303189
80	0xbda32499	-0.07965965
81	0x3e481bb3	0.19541816
82	0x3e1ae9c9	0.15128244
83	0xbe7a904e	-0.2446911
84	0xbd9e16dc	-0.07719204
85	0xbd6bc5a4	-0.05756153
86	0x3ea5bcb4	0.32370532
87	0xbe7c7181	-0.24652673
88	0x3e942641	0.28935435
89	0x3d839bcb	0.064261995
90	0x3ef4c320	0.4780512
91	0x3dc42902	0.09578134
92	0xbe322531	-0.17397
93	0x3ebd19a5	0.36933628
94	0xbf08e0ed	-0.5346821
95	0xbc39475b	-0.011308516
96	0xbe345cbd	-0.17613502
97	0x3eab0a83	0.33406457
98	0x3f079ea8	0.52976465
99	0xbe6b3b2b	-0.2297179
100	0x3e0023c8	0.1251365
101	0xbced869b	-0.028994849
102	0xbe0a8333	-0.13526611
103	0xbf1fdc95	-0.62445956
104	0x3ea20519	0.31644514
105	0x3a612f9c	0.0008590163
106	0x3eba653e	0.36405367
107	0xbdc270e9	-0.09494192
108	0x3f1258b7	0.5716662
109	0xbf2f1cd3	-0.6840336
110	0x3e04c91c	0.12967342
111	0x3f13e344	0.57768655
112	0x3ea8df9e	0.32983106
113	0x3e3877d1	0.18014456
114	0x3e1975d9	0.14986362
115	0xbebfa03c	-0.37426937
116	0xbeed043c	-0.46292293
117	0x3f0d14e5	0.5511001
118	0x3e3cf7bd	0.1845388
119	0xbed4970d	-0.41521493
120	0xc0ac474f	-5.3837047
121	0x3c08b1d2	0.008343177
122	0xc080f054	-4.029337
123	0x3cd54ccf	0.026037602
124	0x3d9f8352	0.07788719
125	0x3d22ab53	0.03971417
126	0xc03b7704	-2.9291391
127	0x3d8755c6	0.06608157
128	0xbecaaf71	-0.39586976
129	0xbe849e3f	-0.25901982
130	0xbe42904c	-0.19000357
131	0xbe80113f	-0.25013158
132	0xbdacfae8	-0.08446294
133	0x3ed8ac73	0.42319068
134	0xbeaa22d9	-0.33229712
135	0x3f097930	0.5370054
136	0xbf0a5e65	-0.54050285
137	0xbec65044	-0.38733113
138	0xbf125ba9	-0.5717111
139	0x3e43a3bb	0.19105427
140	0xbf0bc66a	-0.5459963
141	0x3ea53867	0.32269594
142	0x3e748c7a	0.23881713
143	0xbf248cbc	-0.64277244
144	0xbe3604b0	-0.17775226
145	0x3c860718	0.016360804
146	0x3d4c08cb	0.049813073
147	0xbcbcd026	-0.023048472
148	0x3e7128df	0.23550747
149	0x3e8155ee	0.25260872

fc1.bias f4 [30]
0	0xbee45e15	-0.4460303
1	0x3e8f545e	0.27994055
2	0xbdce316a	-0.10068019
3	0x3d60cbde	0.054881923
4	0x3d0607cf	0.03272229
5	0xbe76640b	-0.24061601
6	0xbefda91b	-0.4954308
7	0x3d6f0169	0.058350954
8	0x3e07f070	0.13275313
9	0x3de34cba	0.11098619
10	0x3dbba96a	0.091631725
11	0xbed0be8a	-0.4077037
12	0x3cc917b6	0.024547439
13	0x3cfc1b63	0.030774778
14	0x3e86031c	0.26174247
15	0x3e0f2ee8	0.13982737
16	0xbdd7c31a	-0.105352595
17	0xbe07539c	-0.13215488
18	0x3c8e3184	0.017357595
19	0xbebda39a	-0.3703888
20	0x3dd6a0e2	0.10479905
21	0xbeb82179	-0.35963038
22	0xbf164d03	-0.5871126
23	0xbec4294f	-0.38312766
24	0x3d6b4afb	0.057444554
25	0x3d6bc3dc	0.057559833
26	0xbe690ae3	-0.22758059
27	0xbda8c8ff	-0.08241462
28	0xbd2841c0	-0.04107833
29	0xbdae093e	-0.084978566

my_fc.0.weight f4 [250, 30]
0	0x3e8b6740	0.2722721
1	0xbec7dc67	-0.3903534
2	0x3bd62fc3	0.0065364554
3	0xbf3583bf	-0.70904154
4	0x3c29b169	0.010357239
5	0xbd30e69c	-0.043188676
6	0xbc7f2986	-0.015573865
7	0xbe03e494	-0.12880164
8	0xbe3d5407	-0.18489085
9	0x3d85f86f	0.065415256
10	0xbc4c24a6	-0.01245991
11	0xbd225970	-0.039636075
12	0xbdacf332	-0.08444823
13	0x3f37d2d1	0.71806055
14	0xbc6c512d	-0.014423651
15	0xbcd25411	-0.025674852
16	0x3d9fc837	0.0780186
17	0xbe16eedc	-0.14739555
18	0xbea21e82	-0.316639
19	0xbdac95d0	-0.08427012
20	0x3e1f5a62	0.15561822
21	0x3e89c6fa	0.2690962
22	0xbe34e1ed	-0.17664309
23	0x3eb59b7d	0.3547019
24	0xbd9bc434	-0.07605782
25	0x3ef7b3cd	0.48379365
26	0xbeb06579	-0.34452417
27	0xbe14e875	-0.145418
28	0x3e1fd182	0.15607265
29	0xbcef5598	-0.029215619
30	0x3cc92971	0.024555894
31	0x3e54ad90	0.20769334
32	0xbe20d2d7	-0.15705429
33	0x3ef4ba29	0.4779828
34	0x3b4c4c80	0.0031173527
35	0x3e078aec	0.13236588
36	0x3e1aa3ed	0.15101595
37	0xbd40fbb6	-0.04711505
38	0x3d11360e	0.03545194
39	0x3e2a1705	0.16610344
40	0x3d883d87	0.066523604
41	0xbe0650e3	-0.13116793
42	0x3e521854	0.20517093
43	0x3e90ffc0	0.28320122
44	0x3e8cf7cd	0.27532807
45	0xbe349daf	-0.17638277
46	0xbcbc521b	-0.02298837
47	0x3e67773a	0.22604075
48	0xbdc7653f	-0.09736108
49	0x3e1bba20	0.1520772
50	0x3d1dbc94	0.03850992
51	0x3ea42150	0.32056665
52	0x3e92773b	0.2860659
53	0xbe21b803	-0.15792851
54	0x3f354b9f	0.70818514
55	0x3ea534fd	0.3226699
56	0x3de04083	0.10949805
57	0xbea98eab	-0.3311666
58	0xbd7812e2	-0.060564883
59	0x3e18f247	0.14936171
60	0xbf00a969	-0.502585
61	0x3a6ec2df	0.00091080175
62	0xbdccddf6	-0.10003273
63	0xbe069a29	-0.13144745
64	0x3e5493e3	0.2075954
65	0x3e95d401	0.2926331
66	0x3e903ce5	0.2817146
67	0x3e2baad7	0.16764389
68	0x3e110a53	0.14164095
69	0x3e0eb6b5	0.13936885
70	0xbe600466	-0.21876678
71	0xbd3bdfc4	-0.045867696
72	0x3e21cc20	0.15800524
73	0xbe945b4a	-0.28975898
74	0xbe96c84e	-0.29449695
75	0x3d069d57	0.032864895
76	0x3d43a575	0.047765214
77	0xbe4eaed5	-0.2018388
78	0x3eb49dd2	0.35276657
79	0x3dd903ee	0.10596453
80	0xbdd1de8e	-0.10247527
81	0xbeb192a3	-0.34682187
82	0x3e754e9f	0.23955773
83	0x3b5ad681	0.0033392014
84	0xbd5aa067	-0.053375628
85	0xbe96061c	-0.29301536
86	0xbb53929e	-0.0032283436
87	0x3e45bdb9	0.19310655
88	0x3e88971f	0.26677796
89	0x3e333492	0.17500523
90	0xbece10d6	-0.4024722
91	0xbd3b03b7	-0.04565784
92	0x3d2eed37	0.042706694
93	0xbd985c42	-0.07439472
94	0xbd8ff7d8	-0.07029694
95	0x3ea6d797	0.32586357
96	0x3e883176	0.26600236
97	0x3e647ab8	0.22312438
98	0x3cae3c31	0.021268936
99	0xbe4dc636	-0.20095143
100	0x3de9c286	0.114140555
101	0xbdf26920	-0.11836457
102	0x3dd70c0b	0.10500344
103	0xbc231180	-0.009952903
104	0xbeae79f0	-0.34077406
105	0xbe294ef0	-0.16534019
106	0x3d90972e	0.07060085
107	0x3c0855f2	0.008321272
108	0x3e748e2f	0.23882364
109	0x3e80b0f1	0.25134996
110	0xbe1b3da2	-0.1516023
111	0x3dca182a	0.0986789
112	0xbf082ccf	-0.5319337
113	0x3d862e52	0.06551804
114	0xbe803b3a	-0.25045186
115	0xbc21efdf	-0.00988385
116	0x3e4338c5	0.19064625
117	0x3e3abb83	0.18235593
118	0x3de1e50e	0.11030017
119	0xbd02a3ec	-0.03189461
120	0xbeb7be03	-0.35887155
121	0xbe81c854	-0.2534815
122	0x3e43832a	0.19093004
123	0xbe208c5c	-0.15678543
124	0xbcc040fc	-0.023468487
125	0x3eb76370	0.35818052
126	0x3b14a6e7	0.002268249
127	0x3e879b1d	0.2648553
128	0x3e4d435d	0.20045228
129	0xbe83ba2e	-0.2572798
130	0xbe2fe446	-0.17176923
131	0xbe1bc489	-0.15211691
132	0xbd87a667	-0.066235356
133	0xbf43c88d	-0.7647789
134	0xbe5bbe5b	-0.21459334
135	0x3e6a6bcb	0.22892682
136	0x3df45810	0.11930859
137	0x3e6e6779	0.23281659
138	0x3e622d81	0.22087671
139	0x3dec153d	0.115274884
140	0x3e27fc32	0.16404799
141	0xbea6a3d8	-0.32546878
142	0x3e43dc96	0.19127116
143	0xbde983e0	-0.11402106
144	0xbe537408	-0.20649731
145	0xbe3de4b4	-0.18544275
146	0x3e2d99bf	0.1695318
147	0xbd849a29	-0.06474716
148	0x3dbeb4ec	0.09311852
149	0x3da710a1	0.081574686
150	0x3eb3b1c0	0.3509655
151	0x3eafb70b	0.34319338
152	0xbc02aaaa	-0.00797526
153	0x3f2e9e78	0.68210554
154	0xbbff64c8	-0.0077939965
155	0xbe51eb7c	-0.20499986
156	0x3e0284cb	0.12745969
157	0xbc708679	-0.014680498
158	0xbd80998e	-0.06279288
159	0x3d6f8c60	0.05848348
160	0x3e2ea55c	0.17055267
161	0x3e254978	0.16141307
162	0xbe4da836	-0.20083699
163	0x3e9ac383	0.3022729
164	0x3e9c07f9	0.30474833
165	0xbe578a3b	-0.21048824
166	0x3b32cfbf	0.002728447
167	0x3e061d42	0.13097098
168	0xbb6e2b87	-0.0036341862
169	0xbe396064	-0.18103176
170	0xbd99f4b9	-0.0751738
171	0x3ec0500a	0.37561065
172	0x3e4b768f	0.19869445
173	0xbe82b44e	-0.25528187
174	0x3f05e82e	0.52307403
175	0x3f13756a	0.57601035
176	0xbe245be6	-0.16050681
177	0xbe5dec6d	-0.2167222
178	0xbcc2f892	-0.023800168
179	0x3e16535d	0.14680238
180	0x3e7fe11a	0.24988213
181	0x3ebc7f9b	0.36816105
182	0x3d8aaebf	0.067716114
183	0x3e9cc453	0.30618533
184	0xbe01484b	-0.12625234
185	0xbdd49b5c	-0.10381195
186	0x3d41ebbc	0.047343954
187	0xbd81cac8	-0.063375056
188	0xbdd03102	-0.101655975
189	0xbee1511c	-0.44007194
190	0x3d15a1f2	0.036531396
191	0x3df2c85c	0.11854622
192	0x3e3c7b20	0.18406343
193	0xbe35101a	-0.17681924
194	0xbbc6d916	-0.006068359
195	0x3df82f80	0.12118435
196	0x3c816cfe	0.015799042
197	0x3dbf3a0e	0.09337245
198	0x3df1e6d3	0.11811604
199	0xbe9e5298	-0.3092239
200	0x3e6e3106	0.23260888
201	0x3ee3498d	0.44392052
202	0xbe5ee9d5	-0.21768887
203	0xbe507b72	-0.2035959
204	0x3f07de4c	0.53073573
205	0xbd98aee9	-0.074552365
206	0xbe089e2e	-0.13341591
207	0xbe54ff8a	-0.20800605
208	0xbe29254d	-0.16518135
209	0xbe2dda0e	-0.16977713
210	0x3d5dfddb	0.054197174
211	0xbcb9c5b1	-0.022677274
212	0xbdb46bed	-0.08809648
213	0x3ef5155e	0.47867864
214	0xbcc26740	-0.023730874
215	0x3e8024be	0.25028032
216	0x3d7a699f	0.061135884
217	0x3dd179cd	0.1022831
218	0x3d8e1dab	0.069392525
219	0xbda03cde	-0.078241095
220	0xbd7f5653	-0.062338185
221	0xbd40a018	-0.047027677
222	0xbe801bbc	-0.2502116
223	0xbe12600a	-0.14294448
224	0xbd1b774e	-0.037955575
225	0x3eb9a7d7	0.36260864
226	0x3c3b3a22	0.011427434
227	0x3e1c8864	0.15286404
228	0x3e75b243	0.23993783
229	0xbd3838a5	-0.044975895
230	0x3ee7e000	0.45288086
231	0xbe6aa32f	-0.22913812
232	0x3c455bcd	0.012045813
233	0xbe25ea51	-0.16202666
234	0xbb65d09a	-0.0035066963
235	0x3dd243ce	0.10266839
236	0x3ea2b85c	0.3178128
237	0xbf1d4547	-0.61433834
238	0xbd81bb6d	-0.06334577
239	0xbe047350	-0.12934613
240	0x3df11b8c	0.11772832
241	0x3e880293	0.26564464
242	0xbe27c0cd	-0.16382141
243	0x3e5616ed	0.20907183
244	0xbd117fe4	-0.035522357
245	0xbeaacfbd	-0.33361617
246	0x3b91379b	0.0044316775
247	0x3e3a25eb	0.18178527
248	0x3d02374d	0.03179102
249	0x3d8a727e	0.06760119
250	0x3ea3811c	0.3193444
251	0x3e3730fc	0.1788978
252	0xbe0b127e	-0.13581273
253	0x3f44056d	0.7657078
254	0xbc313407	-0.010815627
255	0xbd404b5b	-0.046946865

my_fc.0.bias f4 [250]
0	0x3dd22303	0.10260584
1	0xbe540bca	-0.20707622
2	0xbe0f8c05	-0.14018257
3	0x3dae61ca	0.085147455
4	0xbc2aa3e0	-0.010415047
5	0xbe3f43e8	-0.18678248
6	0xbdddb99d	-0.108264185
7	0xbe019d3d	-0.12657638
8	0xbe107d3d	-0.14110275
9	0xbcc07363	-0.02349252
10	0xbdd45f67	-0.10369759
11	0xbda74caa	-0.081689194
12	0xbce4d366	-0.027932834
13	0xbe74691a	-0.23868218
14	0x3ddc008d	0.107422926
15	0xbde0a091	-0.109681256
16	0x3e696991	0.22794177
17	0xbd783ae9	-0.060603056
18	0x3d9fcf6c	0.078032345
19	0xbc4f9446	-0.0126696285
20	0x3c241695	0.01001515
21	0xbe2edaac	-0.17075604
22	0x3d4d9561	0.050191287
23	0x3e35f30c	0.17768496
24	0x3d071943	0.032983076
25	0x3d14ca40	0.036325693
26	0xbdebefd3	-0.11520352
27	0x3e27b04d	0.16375847
28	0xbe5eb7aa	-0.2174975
29	0xbd96d04c	-0.07363948
30	0xbd72c46f	-0.059269365
31	0xbe00bd86	-0.12572297
32	0xbd606fdf	-0.05479419
33	0x3e3ed673	0.18636493
34	0x3e16b919	0.14719047
35	0xbd5c98f4	-0.053856805
36	0xbe0e259d	-0.13881536
37	0x3e4a42dc	0.19752067
38	0x3e4b406b	0.19848792
39	0xbd6e6a62	-0.058206923
40	0xbd251af9	-0.040308926
41	0xbe597f8b	-0.2124006
42	0xbe153a20	-0.14572954
43	0x3e080d13	0.13286237
44	0xbd0a09d3	-0.033700775
45	0xbcd098fd	-0.025463575
46	0x3e00f8f0	0.12594962
47	0xbd35c63b	-0.0443785
48	0xbe299418	-0.165604
49	0x3dd1db29	0.102468796
50	0x3c1c9d61	0.009559006
51	0xbe1fd5c0	-0.15608883
52	0xbdbfb0f3	-0.09359922
53	0xbb8ed53d	-0.004358916
54	0xbe5e086c	-0.216829
55	0xbd275e84	-0.04086162
56	0x3df57df7	0.119869165
57	0x3d4f3e9c	0.05059682
58	0x3e44851a	0.19191399
59	0xbd0d14aa	-0.034443535
60	0x3d5d97bb	0.05409978
61	0xbcee07aa	-0.029056389
62	0xbb28273f	-0.0025658158
63	0x3e45b6c7	0.19308005
64	0xbc82b58a	-0.015955705
65	0x3d979d1c	0.07403013
66	0xbe566de6	-0.2094036
67	0x3dcf062e	0.101086006
68	0xbda73ea8	-0.081662476
69	0xbd6a6297	-0.05722293
70	0xbdc694b3	-0.09696331
71	0x3e002e24	0.12517601
72	0x3e3d3680	0.18477821
73	0xbe4e8934	-0.20169526
74	0xbe468746	-0.1938754
75	0xbdad2aa8	-0.08455402
76	0x3d05c5bb	0.032659274
77	0xbcb7995f	-0.022412
78	0x3d05f530	0.032704532
79	0xbcb1554d	-0.02164712
80	0xbe1aed86	-0.1512967
81	0xbe3af11a	-0.18256035
82	0x3d005cfa	0.03133867
83	0x3c9d1aaf	0.019177763
84	0xbda057c8	-0.07829243
85	0x3e2c5b39	0.16831674
86	0xbd2c8f36	-0.042128764
87	0x3dddde9b	0.10833474
88	0x3c6851e5	0.014179681
89	0xbe3b8c0e	-0.18315145
90	0x3dfd5fd8	0.12371796
91	0xbda5faa3	-0.08104446
92	0xbd86e1a0	-0.06586003
93	0x3d23f0b5	0.040024478
94	0xbe373d33	-0.1789444
95	0xbe3366df	-0.17519711
96	0x3e239d8f	0.15978073
97	0x3bbf333b	0.0058349646
98	0x3d5f3ab7	0.054499354
99	0xbe028c2c	-0.12748784
100	0x3de9d938	0.11418384
101	0xbc37ea93	-0.01122536
102	0x3c5df2e5	0.01354668
103	0x3e503797	0.20333706
104	0x3e2bc306	0.16773614
105	0x3dbfcf35	0.093656935
106	0xbcd3c7c4	-0.025852092
107	0x3d8bc7a9	0.068251915
108	0xbd97e23c	-0.07416198
109	0x3d3a0c6f	0.045422014
110	0x3ddf5bf4	0.109062105
111	0x3d4490ed	0.047989774
112	0xbc8371e8	-0.016045526
113	0xbe3b7d2e	-0.18309471
114	0x3de21e25	0.11040906
115	0xbe3269bd	-0.17423148
116	0xbd8ef827	-0.06980925
117	0x3e2d7cae	0.16942093
118	0x3df37cc2	0.1188903
119	0x3df4da7f	0.11955737
120	0x3bfb8592	0.007675835
121	0xbe50ce1d	-0.20391126
122	0x3db47056	0.08810489
123	0x3e395736	0.18099675
124	0x3dfada79	0.122487016
125	0xbda78450	-0.081795335
126	0xbd90bd50	-0.070673585
127	0x3e0bf56e	0.13667843
128	0xbde26d61	-0.110560186
129	0x3da2f5ae	0.07957016
130	0xbdf9b069	-0.12191851
131	0xbdd575dc	-0.104228705
132	0xbe3122d6	-0.17298445
133	0x3c9bc747	0.019015921
134	0x3b27af86	0.0025586798
135	0xbe1d373d	-0.15353103
136	0xbd32a0dd	-0.043610442
137	0x3da9a226	0.082828805
138	0xbe209705	-0.1568261
139	0xbd24d632	-0.040243335
140	0xbe25201c	-0.1612553
141	0x3caf0469	0.021364408
142	0xbd57f0a1	-0.052719716
143	0xbd39bd36	-0.04534646
144	0xbb99088b	-0.004670208
145	0xbcad5d74	-0.021162726
146	0x3d9a299e	0.07527469
147	0x3e0a13a5	0.13484056
148	0x3e14bdd8	0.14525545
149	0xbd448d45	-0.047986288
150	0xbdb4db85	-0.088309325
151	0x3e2d590c	0.169285
152	0x3e50184d	0.2032177
153	0xbe43eb7f	-0.19132803
154	0x3e4e43e9	0.20143093
155	0x3e3f99af	0.1871097
156	0xba4c0ef0	-0.0007784208
157	0xbda54ec4	-0.08071664
158	0xbe8877c2	-0.26653868
159	0x3d269a83	0.040674698
160	0xbcf3f56d	-0.029780114
161	0x3e0d2caf	0.13786577
162	0x3d49f18b	0.04930262
163	0xbd1dc4e2	-0.03851784
164	0xbd830796	-0.06397931
165	0xbd2be36c	-0.041964933
166	0xbd03b556	-0.032155357
167	0xbd181abd	-0.037134875
168	0xbdef5298	-0.116856754
169	0xbce10921	-0.027470173
170	0x3dcd295b	0.100176536
171	0xbe0f2ffc	-0.13983148
172	0x3ccb798a	0.024838228
173	0xbe528119	-0.2055706
174	0x3ddc18a7	0.107468896
175	0x3da5f704	0.08103755
176	0xbe4c422b	-0.19947116
177	0xbb339d46	-0.0027406975
178	0xbdf638bb	-0.12022539
179	0xbcc98a22	-0.024602
180	0xbe0e8857	-0.13919197
181	0xbe0b6e7c	-0.13616365
182	0x3cdeea38	0.027211294
183	0x3e3df5ce	0.18550798
184	0x3dde31da	0.10849352
185	0xbe2c0c87	-0.16801654
186	0x3d049e0a	0.03237728
187	0x3d0b39cf	0.033990677
188	0xbd58956e	-0.052876882
189	0x3d7cfa30	0.061762035
190	0xbe0d0ea5	-0.13775118
191	0xbe400bfb	-0.1875457
192	0xbdfafe5a	-0.12255545
193	0xbd37c89b	-0.044869047
194	0x3e2575fe	0.16158292
195	0x3e1005f5	0.14064772
196	0xbe7b7c67	-0.24559174
197	0x3b532d85	0.0032223177
198	0x3e8ed77d	0.2789878
199	0xbdfa295e	-0.122149214
200	0x3d6b0916	0.057381712
201	0x3c356758	0.011072002
202	0xbd37caf4	-0.044871286
203	0x3c9fccc2	0.019506816
204	0x3d9206d4	0.071302086
205	0x3c0371df	0.008022754
206	0x3a546b32	0.00081031315
207	0xbdf81033	-0.12112465
208	0x3df68717	0.12037485
209	0x3c9a141e	0.01880842
210	0xbd8c72be	-0.06857823
211	0xbe03aad3	-0.12858133
212	0xbddf4f90	-0.10903847
213	0x3b26fe4b	0.002548116
214	0xbdf42da1	-0.119227655
215	0x3dac6176	0.08417027
216	0xbe24f2bd	-0.16108222
217	0xbc95789c	-0.018245988
218	0x3dac3a9f	0.084096186
219	0xbe07e139	-0.1326951
220	0x3e2096a5	0.15682466
221	0xbe17eacb	-0.1483566
222	0xbe3ec366	-0.18629226
223	0xbd00e8eb	-0.031472128
224	0x3db87a56	0.09007709
225	0xbda57f39	-0.080809064
226	0xbe0567b5	-0.13027842
227	0xbdaf78c7	-0.08567958
228	0x3e0db5bd	0.13838859
229	0x3d4cdff6	0.050018273
230	0xbe2d5ded	-0.16930361
231	0xbc837a91	-0.016049655
232	0xbda95532	-0.08268203
233	0xbd3b9541	-0.045796636
234	0xbdc1c43f	-0.09461259
235	0x3bd68eaa	0.0065477686
236	0x3d99c1fa	0.07507701
237	0xbcf39755	-0.029735247
238	0x3d1ca40d	0.03824239
239	0xbd028771	-0.03186745
240	0x3e5aeb11	0.21378733
241	0x3d7d5d5f	0.061856624
242	0xbdfd934a	-0.12381609
243	0xbd0f7387	-0.035022285
244	0x3e315f07	0.17321406
245	0x3e9dcf67	0.30822298
246	0xbe3ea256	-0.18616614
247	0x3dacad22	0.0843146
248	0x3e56174e	0.20907328
249	0x3a0620c1	0.0005116575

my_fc.1.weight f4 [30, 250]
0	0x3b2f962c	0.002679239
1	0xbd2c636e	-0.04208701
2	0x3c2a7f09	0.010406264
3	0xbbfe7bf3	-0.0077662407
4	0xbd503322	-0.050830014
5	0x3d7aa5b5	0.061193187
6	0x3cfc7b52	0.030820522
7	0x3d0ff151	0.035142247
8	0x3da1c63f	0.078991406
9	0xbc6cff9b	-0.014465238
10	0x3b151583	0.0022748418
11	0x3d49c085	0.049255867
12	0x3e0518cd	0.12997742
13	0x3dfdda0a	0.12395103
14	0xbcf2601c	-0.029586844
15	0x3db4641f	0.08808159
16	0xbe048f14	-0.12945205
17	0xbd13a961	-0.036050204
18	0xbd394e72	-0.045240827
19	0x3de2845c	0.11060402
20	0x3d46d4b0	0.04854268
21	0x3e0a0773	0.13479404
22	0xbd6aa48c	-0.05728583
23	0xbc945757	-0.018108053
24	0x3d2340eb	0.039856832
25	0xbd5efeec	-0.05444233
26	0x3dea1202	0.11429216
27	0x3b8d3b39	0.0043100384
28	0xbdfe4982	-0.12416364
29	0x3d85c09c	0.06530878
30	0x3d859f22	0.06524493
31	0x3d660127	0.056153443
32	0xbc8bf493	-0.017084396
33	0x3d9726d2	0.07380451
34	0x3dea34e1	0.11435867
35	0x3d8985d3	0.06714978
36	0xbe0aa8f2	-0.1354101
37	0x3d911582	0.070841804
38	0x3a25fba7	0.00063317496
39	0x3e2adf5a	0.16686764
40	0x3c8b5518	0.01700835
41	0xbce37eec	-0.027770482
42	0x3c08fc02	0.008360865
43	0xbd1835c8	-0.037160665
44	0xbd72e517	-0.05930051
45	0x3c9c2d36	0.019064527
46	0xbb8f6411	-0.0043759425
47	0x3c013858	0.007886969
48	0x3e0fcf77	0.14043985
49	0xbdd74ac6	-0.10512309
50	0xbd85b01c	-0.06527731
51	0x3c3ddfd5	0.01158901
52	0xbd69139e	-0.056903474
53	0x3d33f213	0.04393203
54	0x3d812ed2	0.063077584
55	0xbcfa9587	-0.030588878
56	0xbd43794e	-0.047723107
57	0x3d48d69d	0.049032796
58	0xbcaab71d	-0.020839268
59	0xbd38cb70	-0.045115888
60	0xbcf0774f	-0.029353766
61	0xbd002855	-0.031288464
62	0xbdd5fa04	-0.10448077
63	0xbcf963f9	-0.030443178
64	0x3d402b2a	0.046916164
65	0xb8e20a05	-0.00010778386
66	0x3bf322d0	0.0074199215
67	0xbdb168c6	-0.08662562
68	0xbc9f3395	-0.019433776
69	0x3ceed24c	0.029153012
70	0xbb731ca4	-0.0037095929
71	0xbdf88fa4	-0.12136772
72	0xbda98919	-0.082781024
73	0x3c0f0d13	0.0087311445
74	0xbd40aa25	-0.047037262
75	0x3b9bfcc2	0.0047603557
76	0x3d95da90	0.07317078
77	0x3d43eb06	0.047831558
78	0xbc14fc2e	-0.009093327
79	0xbdb5aa83	-0.08870413
80	0x3c9faeac	0.01949247
81	0x3dd8eb79	0.10591788
82	0xbd979ac0	-0.07402563
83	0xbb9fcd79	-0.004876789
84	0xbc2d828c	-0.010590207
85	0xbdfe62b6	-0.12421171
86	0x3d2fe282	0.042940624
87	0x3d226a07	0.039651897
88	0xbb114aa6	-0.0022169738
89	0xbd43f2f6	-0.047839127
90	0xbd1f5ef6	-0.03890892
91	0x3d5f9be3	0.054592025
92	0xbd8613ba	-0.06546731
93	0xba81efe2	-0.000991341
94	0xbc8cc491	-0.017183574
95	0x3d8994e9	0.067178555
96	0x3cb077cb	0.021541497
97	0xbd232efa	-0.039839722
98	0xbd86ce51	-0.065823205
99	0x3dcc4406	0.09973912
100	0xbddf13bd	-0.10892437
101	0xbca03ef0	-0.019561261
102	0x3deac6c4	0.11463693
103	0xbd23c1e3	-0.039979827
104	0xbde02298	-0.10944098
105	0xbd4d359d	-0.050099958
106	0x3cd774e6	0.026300859
107	0x3b833299	0.0040038344
108	0x3d800bdb	0.06252261
109	0xbd170912	-0.036873884
110	0xbd82adee	-0.06380831
111	0xbe029bd0	-0.1275475
112	0xbb6dc776	-0.0036282218
113	0xbc955f5f	-0.018233953
114	0xbd16dce4	-0.03683175
115	0x3d849d10	0.0647527
116	0x3c9c47ae	0.019077148
117	0x39b83955	0.0003513793
118	0xbd2bd40a	-0.041950263
119	0x3d5795c0	0.052633047
120	0x3cf9b8c2	0.030483607
121	0x3d6041ac	0.05475013
122	0xbd02ac7d	-0.03190278
123	0xbdd036af	-0.1016668
124	0xbdda08f5	-0.1064624
125	0xbc852322	-0.016252104
126	0xbd665ddb	-0.05624185
127	0xbb7075c6	-0.0036691292
128	0x3daa09a7	0.08302622
129	0x3de1427b	0.10999008
130	0x3db516fb	0.08842274
131	0x3cdb0cde	0.026739534
132	0xbbc70a28	-0.0060742088
133	0xbc323940	-0.010877907
134	0x3d196b2c	0.037455723
135	0x3e72075f	0.23635624
136	0x3cbd2faa	0.023094017
137	0xbd7f5ecb	-0.06234626
138	0x3d8e63e8	0.06952649
139	0x3ca2765c	0.019831829
140	0x3dc235e3	0.09482934
141	0x3d1b8126	0.037964962
142	0x3996af32	0.0002874076
143	0xbce6948f	-0.02814701
144	0x3d0229cb	0.031778138
145	0x3d863d05	0.06554607
146	0xbd598e7f	-0.05311441
147	0xbd05f41a	-0.032703497
148	0xbd2e4c5d	-0.042553294
149	0x3d22c1ae	0.03973549
150	0x3a0ba125	0.00053264416
151	0x3b98b8bf	0.0046606953
152	0x3c80469a	0.015658665
153	0xbd0670d8	-0.03282246
154	0xbd8b6f14	-0.06808296
155	0xbe0166e4	-0.12636906
156	0x3c9c4651	0.019076498
157	0x3c2dd6a5	0.010610257
158	0x3db19cb9	0.086724706
159	0x3d5c4fc2	0.053787
160	0xbc8558f8	-0.016277775
161	0xbdbc7b44	-0.092031986
162	0x3d5dfc33	0.054195594
163	0xbdc1daa6	-0.09465532
164	0x3d595d7c	0.05306767
165	0x3c037ed7	0.008025846
166	0x3ce65bab	0.028119883
167	0xbce6bcc5	-0.028166184
168	0xbc6acc3a	-0.014330918
169	0x3d7584e9	0.059941206
170	0x3b19cfab	0.0023469727
171	0xbcf5f5bb	-0.0300244
172	0x3d9e0245	0.07715277
173	0x3d589886	0.052879833
174	0xbd4d2cd7	-0.05009159
175	0xbcc41024	-0.023933478
176	0x3c0d8449	0.008637496
177	0x3d280127	0.041016724
178	0xbdd6348c	-0.10459241
179	0x3ce126b0	0.027484268
180	0xbe133729	-0.1437651
181	0x3d3dfab4	0.046381667
182	0xbd94fc5e	-0.07274698
183	0xbdbbde3e	-0.09173249
184	0x3cf2149c	0.029550843
185	0x3d158c84	0.03651096
186	0x3dbf4c54	0.0934073
187	0xbcdefe0b	-0.027220747
188	0x3df062ae	0.11737572
189	0x3df920f8	0.121644914
190	0x3cd21023	0.02564246
191	0xbd4c3b73	-0.049861383
192	0xbbaf7e41	-0.005355627
193	0x3ca05a14	0.019574203
194	0xbda89269	-0.082310505
195	0xbc43ffa2	-0.011962803
196	0x3d22cb39	0.03974459
197	0x3d241061	0.040054683
198	0xbdf7b214	-0.120945126
199	0xbc6eacac	-0.014567535
200	0xbd6deebb	-0.058089
201	0x3d22739f	0.039661046
202	0x3d79bfd3	0.060973953
203	0xba85413a	-0.0010166534
204	0xbd8b783d	-0.06810043
205	0xbb5a9fca	-0.0033359402
206	0xbcc9fdda	-0.024657179
207	0x3c874e15	0.016516725
208	0x3dd63616	0.10459535
209	0xbdfa4a06	-0.1222115
210	0x3dc7a206	0.097477004
211	0x3d85450d	0.06507311
212	0x3de26c4e	0.11055814
213	0x3db284cd	0.08716736
214	0x3d688dae	0.05677574
215	0x3db8c419	0.09021778
216	0x3abd948a	0.0014463824
217	0x3d64bc92	0.055843897
218	0xbd68585e	-0.0567249
219	0xbdb0d9c5	-0.08635286
220	0xbe452c14	-0.19255096
221	0xbd28288a	-0.041054286
222	0x3cc74eea	0.024329621
223	0x3be6fcb7	0.007049169
224	0xbdb495d8	-0.08817643
225	0xbd146fdf	-0.0362395
226	0xbd545304	-0.051836982
227	0x3d1f59ff	0.038904186
228	0x3d808d7f	0.06276988
229	0x3ad754c4	0.001642846
230	0xbba83deb	-0.0051343343
231	0xbbf5704d	-0.007490194
232	0xbd59b0ba	-0.053147055
233	0xbbb3e4bb	-0.0054899133
234	0x3dea1f35	0.114317335
235	0x3dc4f552	0.09617104
236	0xbd5bee03	-0.053693783
237	0xbc97fc2a	-0.018552858
238	0x3d84bcbc	0.06481311
239	0x3c958ed5	0.018256584
240	0xbd9ff84b	-0.0781103
241	0xbdaa40bb	-0.083131276
242	0x3da99df7	0.082820825
243	0x3ce8856a	0.02838393
244	0xbd13eb9e	-0.036113374
245	0xbd838cb0	-0.064233184
246	0xbc3a0b4a	-0.011355231
247	0xbc7c1f6d	-0.015388352
248	0xbdac0639	-0.083996244
249	0x3d8b6627	0.068065934
250	0xbd06b9c0	-0.03289199
251	0xbde30dce	-0.110866174
252	0xbe6712ed	-0.22565813
253	0xbe6d139c	-0.23152012
254	0xbe510121	-0.20410587
255	0x3e250d37	0.16118322

my_fc.1.bias f4 [30]
0	0xbe4fad05	-0.20280845
1	0x3d71200b	0.05886845
2	0x3e88ac86	0.26694125
3	0x3d8b5f4a	0.06805284
4	0xbda84b4f	-0.08217489
5	0x3de32ef5	0.11092941
6	0x3e586b3f	0.21134661
7	0xbe288cd0	-0.16459966
8	0x3cb66a57	0.022267504
9	0xbe273c1a	-0.1633152
10	0x3db22e28	0.0870021
11	0xbe5b0293	-0.213877
12	0x3d62e444	0.055393472
13	0xbcb16e35	-0.021658996
14	0x3cc299c9	0.023754971
15	0xbdba33fb	-0.09091946
16	0xbe537235	-0.20649035
17	0xbec7c5dd	-0.39018145
18	0xbe0cc413	-0.13746671
19	0xbe679e3a	-0.22618952
20	0x3e1f109a	0.15533677
21	0x3d866ebd	0.065640904
22	0xbd84c159	-0.06482191
23	0xbea44ab7	-0.32088253
24	0xbe3193ee	-0.17341587
25	0xbeeb2499	-0.4592636
26	0xbe524f07	-0.20537959
27	0x3e993127	0.29920313
28	0xbd6bf4f3	-0.05760665
29	0x3ddbf7cd	0.107406236

fc2.weight f4 [3, 30]
0	0xbd2ee983	-0.042703163
1	0x3dc56222	0.09637858
2	0xbe93c0a8	-0.28857923
3	0xbe38c639	-0.18044366
4	0x3ea130a6	0.31482428
5	0xbdcbd514	-0.09952751
6	0xbe3dec59	-0.1854719
7	0x3ee54779	0.44781092
8	0xbe81e773	-0.25371894
9	0xbe13c119	-0.1442913
10	0xbe82fff1	-0.25585893
11	0x3d01b964	0.031670943
12	0xbe195914	-0.14975387
13	0xbdb4ba52	-0.088246
14	0x3e671f8f	0.22570632
15	0xbe5e05a4	-0.21681839
16	0xbef71abc	-0.48262584
17	0x3e8bbd5f	0.27292916
18	0xbadb4767	-0.0016729654
19	0x3df182b9	0.117925115
20	0xbe8b0573	-0.27152595
21	0xbe2cfca8	-0.16893256
22	0xbe1b227c	-0.15149873
23	0x3e882415	0.26590028
24	0xbda98a76	-0.082783625
25	0x3ebb3298	0.36562037
26	0x3ed0074d	0.4063057
27	0xbd84077f	-0.06446742
28	0x3e02effa	0.12786856
29	0xbe9d71af	-0.30750796
30	0xbcab6952	-0.020924244
31	0x3eafbedc	0.34325302
32	0xbe2f4fab	-0.17120235
33	0xbec55f21	-0.3854914
34	0x3e4757d5	0.19467099
35	0xbd008391	-0.03137547
36	0xbc68283d	-0.01416975
37	0x3e927cce	0.28610843
38	0xbeccb6d0	-0.39983225
39	0xbd58852b	-0.052861374
40	0xbdc1aa86	-0.09456353
41	0x3e99d00d	0.30041543
42	0xbe6d5a30	-0.23178935
43	0xbe686054	-0.22692996
44	0x3e654e56	0.22393164
45	0xbeda2ef9	-0.42613962
46	0xbece72a5	-0.40321842
47	0x3e9bb926	0.30414695
48	0xbb29cad6	-0.0025908253
49	0x3ea733ef	0.3265681
50	0xbdb2d142	-0.08731319
51	0x3d58e420	0.052951932
52	0x3ebecec1	0.37267116
53	0xba77902a	-0.00094437844
54	0xbd2b1c07	-0.041774776
55	0x3e46f1a8	0.19428122
56	0x3e0b1c20	0.13584948
57	0xbe9f37cb	-0.31097254
58	0x3e58132a	0.2110106
59	0xbe84dd59	-0.25950125
60	0x3c7bb147	0.01536209
61	0x3e78ed60	0.24309301
62	0xbe562405	-0.20912178
63	0xbbf72ad6	-0.0075429482
64	0x3e391777	0.18075357
65	0xbecf5290	-0.40492678
66	0xbe82f195	-0.25574937
67	0x3e8d823a	0.27638417
68	0xbe9340d1	-0.28760388
69	0xbd8ba622	-0.06818797
70	0xbdd6a007	-0.104797415
71	0xbe128cd1	-0.1431153
72	0xbda586a7	-0.080823235
73	0x3e55a896	0.20865092
74	0xbd2e894a	-0.042611398
75	0x3d0695c3	0.032857668
76	0xbea84fdc	-0.32873428
77	0x3e0168f6	0.12637696
78	0xbcc33326	-0.0238281
79	0x3e414a86	0.18876085
80	0xbddc6375	-0.107611574
81	0xbea0d8a2	-0.31415278
82	0x3e8f6484	0.28006375
83	0x3e9c3337	0.30507824
84	0xbcf79737	-0.030223472
85	0x3e5f3044	0.21795756
86	0x3f20db79	0.6283489
87	0xbda0148c	-0.07816419
88	0x3cb9ec6c	0.022695743
89	0xbe510b23	-0.20414405

fc2.bias f4 [3]
0	0xbc8b69de	-0.017018255
1	0xbe37c022	-0.17944387
2	0xbe51ea84	-0.20499617

exp_avg f4 [30, 5]
0	0xbbbdb217	-0.005789052
1	0xbba7d667	-0.0051219943
2	0xbbb4c5d5	-0.0055167475
3	0xbbaaddc4	-0.005214425
4	0x3baaddc4	0.005214425
5	0x3bb2e8bd	0.0054598735
6	0x3bf62062	0.0075111846
7	0x3a560141	0.0008163639
8	0xb93cb2a0	-0.0001799562
9	0x393cb2a0	0.0001799562
10	0xbb712070	-0.0036793016
11	0xbb1d73a7	-0.0024025233
12	0xbb409684	-0.002938659
13	0x3a90a78a	0.0011036259
14	0xba90a78a	-0.0011036259
15	0xbb0712bd	-0.0020610534
16	0x3b2b0306	0.0026094331
17	0x3852235b	5.010083e-05
18	0xba4090e0	-0.0007345807
19	0x3a4090e0	0.0007345807
20	0xbabb9691	-0.001431184
21	0xbaed3c73	-0.001809968
22	0xbb5071ec	-0.0031806184
23	0x3a67e4a0	0.00088460185
24	0xba67e4a0	-0.00088460185
25	0xbbbf5a43	-0.0058396175
26	0x39703e98	0.00022911502
27	0xbbdba640	-0.006703168
28	0x3b0b7f91	0.0021285752
29	0xbb0b7f91	-0.0021285752
30	0x3ab32f7f	0.0013670771
31	0x3b5bbccb	0.0033529277
32	0xb6b94300	-5.5212295e-06
33	0xbadd4a27	-0.0016883061
34	0x3add4a27	0.0016883061
35	0xb96faac8	-0.00022856437
36	0x3b02e0ab	0.0019970338
37	0xb9b42e68	-0.0003436685
38	0x3aa73cc9	0.0012759204
39	0xbaa73cc9	-0.0012759204
40	0xbb2d09df	-0.0026403589
41	0xbaceddd0	-0.0015782658
42	0xbb2e929c	-0.002663768
43	0xbb10e87f	-0.0022111235
44	0x3b10e87f	0.0022111235
45	0x3892b617	6.9957394e-05
46	0x3b0e1337	0.0021678933
47	0xb92bd746	-0.00016388026
48	0x3a96ee59	0.0011515125
49	0xba96ee59	-0.0011515125
50	0x3a6907fe	0.00088894356
51	0x3b4a5be8	0.0030877534
52	0xbb62ddd4	-0.0034617083
53	0xb94462e0	-0.0001872885
54	0x394462e0	0.0001872885
55	0x00000000	0.0
56	0x00000000	0.0
57	0x00000000	0.0
58	0x00000000	0.0
59	0x00000000	0.0
60	0xbb904952	-0.0044032717
61	0xbb8c5629	-0.004282732
62	0xbb468cf4	-0.0030296417
63	0xb99cf4e1	-0.00029937088
64	0x399cf4e1	0.00029937088
65	0xb5a500ef	-1.229373e-06
66	0xb4a6fa0a	-3.1101837e-07
67	0xbba0a24a	-0.004902159
68	0xbbbde3c2	-0.005794973
69	0x3bbde3c2	0.005794973
70	0x39d264ee	0.0004012952
71	0x3a6d9238	0.0009062621
72	0xbb216312	-0.00246257
73	0xbb98a322	-0.004658119
74	0x3b98a322	0.004658119
75	0xba3c35d9	-0.0007179655
76	0x38095a50	3.2747455e-05
77	0xba67bf3f	-0.00088404486
78	0x3aedde9d	0.0018148009
79	0xbaedde9d	-0.0018148009
80	0xba0ee5dd	-0.00054511224
81	0xbb3d8f31	-0.002892446
82	0xba315d31	-0.0006765901
83	0x3a777b18	0.00094406446
84	0xba777b18	-0.00094406446
85	0x38858878	6.3673535e-05
86	0xba93433e	-0.001123525
87	0x38cad471	9.671681e-05
88	0xba4548e2	-0.0007525814
89	0x3a4548e2	0.0007525814
90	0x3bb4da2b	0.0055191717
91	0x3c352a5b	0.011057462
92	0x3b4cc20c	0.003124359
93	0x3b94ac90	0.0045371726
94	0xbb94ac90	-0.0045371726
95	0xbbd70d97	-0.0065628993
96	0xbbcd326d	-0.0062621147
97	0xbba37a8f	-0.0049889754
98	0xbb82d15f	-0.003992244
99	0x3b82d15f	0.003992244
100	0x3b9c628d	0.0047724904
101	0x3b87d7a8	0.0041455813
102	0x3a85e7a4	0.0010216129
103	0x3b8b189d	0.0042448775
104	0xbb8b189d	-0.0042448775
105	0x3aca4571	0.0015432072
106	0x3a2a15b2	0.0006488218
107	0x3a3dc057	0.00072384387
108	0x3b1c1bf1	0.0023820365
109	0xbb1c1bf1	-0.0023820365
110	0xb9ee96c0	-0.00045507215
111	0xb6854400	-3.971625e-06
112	0x3ab6f583	0.0013958666
113	0xbb828c9d	-0.0039840476
114	0x3b828c9d	0.0039840476
115	0x3a2f00a9	0.00066758186
116	0x38fb0ee7	0.000119713884
117	0x3c579a28	0.013159312
118	0x3b6c68e0	0.0036073253
119	0xbb6c68e0	-0.0036073253
120	0xb6c7d6d9	-5.9556737e-06
121	0x3abab7b4	0.0014245422
122	0x37baa1d7	2.224829e-05
123	0x3b4f4218	0.0031625088
124	0xbb4f4218	-0.0031625088
125	0x3ba8c70e	0.0051506823
126	0x390053f7	0.0001223831
127	0x3bcb2800	0.0061998367
128	0xbb8afd61	-0.004241631
129	0x3b8afd61	0.004241631
130	0xb84b6037	-4.848858e-05
131	0xb83c6f4d	-4.492635e-05
132	0x3a42e77b	0.0007435006
133	0x3ad481a4	0.0016212952
134	0xbad481a4	-0.0016212952
135	0xbb5e9daa	-0.0033968487
136	0x3b2fabbc	0.0026805243
137	0xbba0cbb0	-0.004907094
138	0xbaf2571c	-0.0018489095
139	0x3af2571c	0.0018489095
140	0x399a9f3c	0.00029491808
141	0x3b01143c	0.0019695899
142	0x3bbb84ed	0.005722633
143	0xba28a1f6	-0.00064328255
144	0x3a28a1f6	0.00064328255
145	0x00000004	6e-45
146	0x00000004	6e-45
147	0x00000004	6e-45
148	0x80000004	-6e-45
149	0x00000004	6e-45

exp_avg_sq f4 [30, 5]
0	0x39e0e3a5	0.00042894218
1	0x39d3c71d	0.00040393407
2	0x39dfa57a	0.00042657164
3	0x3915bda6	0.00014280397
4	0x3915bda6	0.00014280397
5	0x3abc917f	0.0014386623
6	0x3b37723d	0.0027991675
7	0x37aa25f0	2.0283245e-05
8	0x3a0ec2c8	0.0005445895
9	0x3a0ec2c8	0.0005445895
10	0x39c7de24	0.00038121745
11	0x3a09dd1d	0.00052590837
12	0x39889f75	0.00026058746
13	0x38d12200	9.9722296e-05
14	0x38d12200	9.9722296e-05
15	0x39f926ac	0.00047521794
16	0x3b9af457	0.0047288346
17	0x3402287c	1.2121922e-07
18	0x3b06227f	0.0020467339
19	0x3b06227f	0.0020467339
20	0x39664d7c	0.00021963374
21	0x39611d26	0.00021468531
22	0x39bb678b	0.00035744565
23	0x38e9d3ec	0.00011149779
24	0x38e9d3ec	0.00011149779
25	0x39c24826	0.00037056318
26	0x39a7f311	0.0003203382
27	0x39b2f9c7	0.00034136904
28	0x3930c683	0.0001685862
29	0x3930c683	0.0001685862
30	0x39152ff0	0.00014227605
31	0x39518b5d	0.0001998371
32	0x39212267	0.00015366972
33	0x3929969d	0.00016173204
34	0x3929969d	0.00016173204
35	0x38387550	4.3978274e-05
36	0x38b5a60d	8.661682e-05
37	0x3809dc71	3.2868647e-05
38	0x388fa32f	6.849167e-05
39	0x388fa32f	6.849167e-05
40	0x393ee8ed	0.00018206584
41	0x39988797	0.00029092722
42	0x3912d184	0.00014001696
43	0x38fc4cf7	0.00012030632
44	0x38fc4cf7	0.00012030632
45	0x32fefbdb	2.9684022e-08
46	0x388a5766	6.596632e-05
47	0x376215df	1.3475742e-05
48	0x396807be	0.00022128128
49	0x396807be	0.00022128128
50	0x37a1e82c	1.9300809e-05
51	0x39d02e9c	0.00039707578
52	0x3980e810	0.00024586963
53	0x396ac005	0.00022387512
54	0x396ac005	0.00022387512
55	0x00000000	0.0
56	0x00000000	0.0
57	0x00000000	0.0
58	0x00000000	0.0
59	0x00000000	0.0
60	0x38c23339	9.260182e-05
61	0x393bb91d	0.0001790267
62	0x38309caf	4.2107593e-05
63	0x389479c9	7.079874e-05
64	0x389479c9	7.079874e-05
65	0x330f6936	3.339047e-08
66	0x316ed228	3.4753018e-09
67	0x3a1fec0d	0.0006100543
68	0x3a70131b	0.00091581204
69	0x3a70131b	0.00091581204
70	0x3745e5f6	1.1795657e-05
71	0x36d57d7d	6.3625034e-06
72	0x39d92be1	0.00041422158
73	0x393f5f98	0.00018250791
74	0x393f5f98	0.00018250791
75	0x38ef0ad5	0.00011398426
76	0x392e736f	0.00016636935
77	0x38dac259	0.0001043125
78	0x39041c17	0.00012598965
79	0x39041c17	0.00012598965
80	0x38a0a51b	7.660148e-05
81	0x38e8c108	0.00011098577
82	0x38a89284	8.038155e-05
83	0x3835390d	4.3206895e-05
84	0x3835390d	4.3206895e-05
85	0x390b64bb	0.00013293598
86	0x39911add	0.0002767657
87	0x387fb8d0	6.0968858e-05
88	0x38f737aa	0.00011788246
89	0x38f737aa	0.00011788246
90	0x39bba963	0.00035793622
91	0x3a0cb399	0.00053673383
92	0x39aa2be7	0.00032457637
93	0x394ea533	0.00019707232
94	0x394ea533	0.00019707232
95	0x3a682249	0.00088552065
96	0x3a6be33b	0.00089983986
97	0x3a75a335	0.0009370328
98	0x3a17600b	0.00057745044
99	0x3a17600b	0.00057745044
100	0x39c01a0f	0.0003664051
101	0x3a10fd87	0.00055309426
102	0x395ea8bf	0.00021234433
103	0x3930f611	0.00016876335
104	0x3930f611	0.00016876335
105	0x3a29165f	0.0006450172
106	0x3a808dfb	0.0009807938
107	0x39a48be6	0.0003138475
108	0x39a9ab65	0.0003236189
109	0x39a9ab65	0.0003236189
110	0x3a888898	0.0010416685
111	0x3ab50848	0.0013811672
112	0x3a4975cb	0.0007685094
113	0x3a024f66	0.0004970938
114	0x3a024f66	0.0004970938
115	0x37380f21	1.0970777e-05
116	0x36838d25	3.9205356e-06
117	0x3a350243	0.0006904939
118	0x3970604b	0.00022924056
119	0x3970604b	0.00022924056
120	0x31aaf954	4.9759965e-09
121	0x3a17d44e	0.0005791829
122	0x3235691a	1.0559484e-08
123	0x3a83f3eb	0.00100672
124	0x3a83f3eb	0.00100672
125	0x39a4292f	0.00031311202
126	0x3618de99	2.2779334e-06
127	0x3b0aaa11	0.0021158496
128	0x3aaa70c1	0.0013003574
129	0x3aaa70c1	0.0013003574
130	0x36d1d79d	6.253786e-06
131	0x36fc074f	7.511036e-06
132	0x37af5432	2.0900832e-05
133	0x3903237b	0.00012506351
134	0x3903237b	0.00012506351
135	0x39aa772e	0.00032513723
136	0x38f43984	0.0001164554
137	0x39950d82	0.0002842956
138	0x39a2e1af	0.00031067195
139	0x39a2e1af	0.00031067195
140	0x398725fd	0.0002577751
141	0x3a61a630	0.0008607833
142	0x3a245095	0.0006268111
143	0x396e8184	0.00022745697
144	0x396e8184	0.00022745697
145	0x2513da2d	1.2824138e-16
146	0x250e7501	1.2356179e-16
147	0x2508a7c2	1.1852958e-16
148	0x24b84b85	7.9925215e-17
149	0x24b84b85	7.9925215e-17

exp_avg f4 [30]
0	0xbbababb5	-0.005238975
1	0x3c425370	0.011860713
2	0xbb6aafbc	-0.0035810312
3	0x3cd3d7a2	0.025859658
4	0xbad8dd60	-0.0016545467
5	0xbb71dcac	-0.0036905212
6	0x3b21dd57	0.002469858
7	0x3bab4bea	0.0052275555
8	0xba8f18e7	-0.0010917456
9	0x3cb8f525	0.022577832
10	0x3ca33850	0.019924313
11	0x00000000	0.0
12	0xbad96cfe	-0.0016588268
13	0xbafd0b18	-0.0019305674
14	0x3c3fdc5a	0.011710251
15	0xbb45d1f4	-0.0030184956
16	0xbb4df80d	-0.0031428367
17	0xbb5d257f	-0.0033744273
18	0x3bc9999e	0.006152346
19	0xbbb59b25	-0.0055421763
20	0x3baa5a92	0.005198785
21	0x3b2235dc	0.002475134
22	0xb7e56f80	-2.7350849e-05
23	0x3ca468b9	0.020069467
24	0x3c920456	0.017824333
25	0x3ccfadd0	0.025351435
26	0x3b4bd326	0.0031101196
27	0x3aaa46f8	0.0012991121
28	0x3ba44fdb	0.0050144023
29	0x00000004	6e-45

exp_avg_sq f4 [30]
0	0x39f45a2f	0.000466065
1	0x3bc06a3e	0.00587204
2	0x3a30e441	0.00067478797
3	0x3c6fbaa2	0.014631899
4	0x3a827695	0.0009953553
5	0x3a4d8973	0.0007840611
6	0x39f7d65b	0.00047271219
7	0x3a5d8e1c	0.0008451657
8	0x3a513f3a	0.0007982139
9	0x3b68f7af	0.0035548022
10	0x3b59ca03	0.003323198
11	0x00000000	0.0
12	0x3a0ae4bf	0.0005298368
13	0x3c31c3c0	0.010849893
14	0x3aeb92bc	0.0017972807
15	0x3a8b0f2a	0.0010609378
16	0x397834c1	0.00023670775
17	0x39e8b3d8	0.00044384482
18	0x3ae58f12	0.0017513952
19	0x3acae504	0.0015479629
20	0x3ad0a284	0.0015917574
21	0x3ad29758	0.0016066832
22	0x3aceb8f2	0.0015771671
23	0x3aa0e1db	0.0012274341
24	0x3bf9c4de	0.0076223454
25	0x3c33ca6d	0.010973555
26	0x3a19b41b	0.00058633246
27	0x3aa80ac6	0.0012820594
28	0x3b32c7b5	0.002727968
29	0x2566d956	2.0022956e-16

exp_avg f4 [250, 30]
0	0x372a666e	1.0156638e-05
1	0xb9a96bd2	-0.00032314524
2	0xb795224d	-1.7778157e-05
3	0xb8a9ccc7	-8.096691e-05
4	0xb5b5ee70	-1.3554945e-06
5	0xb78bc8c6	-1.6663584e-05
6	0x386edd8e	5.694996e-05
7	0xb8992c8a	-7.3039046e-05
8	0xb9a0dc9d	-0.00030681948
9	0xb8fd419a	-0.00012076199
10	0xb92acc64	-0.00016288605
11	0x00000000	0.0
12	0xb8f36f5a	-0.00011607884
13	0xb73bb438	-1.1188029e-05
14	0xb9441139	-0.00018698433
15	0xb93dbeba	-0.00018095496
16	0xb725ce05	-9.882734e-06
17	0xb8166c7f	-3.586383e-05
18	0xb9ef904f	-0.0004569315
19	0xb805b73c	-3.188032e-05
20	0xb7520618	-1.2518394e-05
21	0xb929275c	-0.00016131758
22	0xb8f72d85	-0.000117863565
23	0x37c8f9ff	2.3958271e-05
24	0xb88c1cae	-6.681062e-05
25	0x381897c5	3.638097e-05
26	0x37d7c33b	2.5720909e-05
27	0x37b57f56	2.1636177e-05
28	0xb73e6544	-1.134846e-05
29	0x00000004	6e-45
30	0xb8171410	-3.601989e-05
31	0x394942f4	0.00019193796
32	0xb7ccf61d	-2.44333e-05
33	0x37cd695e	2.448697e-05
34	0xb7ed3d70	-2.828121e-05
35	0xb620f140	-2.3982284e-06
36	0xb8bb737d	-8.938366e-05
37	0x37bd2ba4	2.2550877e-05
38	0x386b2edc	5.6072007e-05
39	0x388a47b1	6.593706e-05
40	0x37a800fb	2.0027617e-05
41	0x00000000	0.0
42	0x379db89d	1.8801826e-05
43	0x37284680	1.0029995e-05
44	0x39347480	0.00017209537
45	0x389be02c	7.432731e-05
46	0xb8be8bca	-9.085944e-05
47	0xb741af1b	-1.1544466e-05
48	0x37e31065	2.7068143e-05
49	0x36c1cba4	5.775555e-06
50	0xb8c22ab4	-9.258595e-05
51	0xb79f1e4e	-1.8968389e-05
52	0xb82a2513	-4.0565687e-05
53	0xb7f8a481	-2.9640507e-05
54	0x37ce2aa4	2.457697e-05
55	0x37599894	1.2969733e-05
56	0xb720a088	-9.57412e-06
57	0xb6aaf122	-5.0944664e-06
58	0xb929e203	-0.00016201292
59	0x80000004	-6e-45
60	0x37cba692	2.4277051e-05
61	0x38fa82f3	0.0001194532
62	0x37655859	1.3670034e-05
63	0x37e57936	2.735537e-05
64	0xb88c316a	-6.684924e-05
65	0xb82cc7d0	-4.1194085e-05
66	0xb7f78f3c	-2.9511393e-05
67	0xb8808b06	-6.129411e-05
68	0x39290031	0.00016117167
69	0x38de1846	0.00010590306
70	0x38eb7598	0.00011227577
71	0x00000000	0.0
72	0x381259dc	3.48928e-05
73	0x3816982d	3.590451e-05
74	0x380047d2	3.0584466e-05
75	0x38d8323a	0.00010309038
76	0x384db227	4.9041726e-05
77	0x3793a850	1.7602142e-05
78	0x397be4e5	0.00024022495
79	0x3833897e	4.2804975e-05
80	0xb9737a4a	-0.00023219842
81	0x38f94773	0.00011886554
82	0x3913526f	0.00014049721
83	0x38083c9b	3.248137e-05
84	0x384083e0	4.5899185e-05
85	0xb8ed834d	-0.00011325497
86	0x36ef828d	7.137953e-06
87	0xb8ebdc6d	-0.00011246731
88	0xb85a8df4	-5.2107454e-05
89	0x80000004	-6e-45
90	0xb8375f18	-4.3719163e-05
91	0xb8d01c4a	-9.923482e-05
92	0xb8c3bde1	-9.333692e-05
93	0xb878d075	-5.932195e-05
94	0xb8f60cef	-0.00011732603
95	0xb836a16c	-4.3542517e-05
96	0xb90adecc	-0.00013243704
97	0x37cf8e3f	2.4742561e-05
98	0xb8ef3fd0	-0.00011408294
99	0xb89c8c9d	-7.464851e-05
100	0xb8ad32ff	-8.2587816e-05
101	0x00000000	0.0
102	0xb711fd48	-8.701645e-06
103	0x38169c74	3.5908495e-05
104	0xb87495de	-5.8313708e-05
105	0xb8fb7dae	-0.00011992022
106	0xb807ab39	-3.234597e-05
107	0xb7eb0181	-2.8014883e-05
108	0xb9312b3d	-0.00016896143
109	0x37612192	1.3418861e-05
110	0xb89c4bee	-7.452803e-05
111	0xb5e59640	-1.7105558e-06
112	0xb897d6f6	-7.240281e-05
113	0x3822f1f8	3.884916e-05
114	0xb78c8521	-1.6751294e-05
115	0x37f050d0	2.864786e-05
116	0x37de3e7b	2.6493557e-05
117	0xb856de50	-5.122862e-05
118	0x3828edb4	4.02757e-05
119	0x80000004	-6e-45
120	0x3800e1af	3.0727762e-05
121	0xb91edb7d	-0.0001514982
122	0xb81e5284	-3.7746984e-05
123	0xb84cd3d4	-4.883467e-05
124	0xb9205c82	-0.00015293251
125	0xb884591f	-6.3108506e-05
126	0x38536e12	5.040883e-05
127	0x37c5db90	2.3586472e-05
128	0xb9012b06	-0.00012318426
129	0xb8aa55c0	-8.122204e-05
130	0xb8eaa8be	-0.0001118942
131	0x00000000	0.0
132	0x36991b28	4.5629167e-06
133	0x380fc8f0	3.4280994e-05
134	0xb93140cd	-0.00016904176
135	0xb925e776	-0.00015821852
136	0x38a9052c	8.059511e-05
137	0x35b236a0	1.3277931e-06
138	0xb962ce76	-0.00021629952
139	0xb6821e13	-3.877803e-06
140	0xb72bf4f0	-1.0249423e-05
141	0x37d22789	2.505236e-05
142	0x38a5736a	7.889311e-05
143	0x38101758	3.4354016e-05
144	0xb7974081	-1.803064e-05
145	0xb8170473	-3.600535e-05
146	0x35a67588	1.240217e-06
147	0xb869cc7c	-5.574197e-05
148	0x391bda64	0.00014863309
149	0x00000004	6e-45
150	0xb7cd3bb6	-2.446571e-05
151	0x395a96f0	0.00020846329
152	0x3837e150	4.384044e-05
153	0x38860070	6.3896994e-05
154	0x3931e5cc	0.00016965641
155	0x38b0931d	8.419736e-05
156	0xb8908b91	-6.892451e-05
157	0xb857e6e3	-5.1475025e-05
158	0x3978a13f	0.00023711192
159	0x38e6dc64	0.000110083056
160	0x38b04da2	8.406794e-05
161	0x00000000	0.0
162	0x3818f47e	3.6467325e-05
163	0xb7ae0eba	-2.0749274e-05
164	0x397d10a1	0.00024134155
165	0x393fb36a	0.00018282016
166	0xb8c1616d	-9.221104e-05
167	0x3745ab3c	1.1781984e-05
168	0x3a00819f	0.00049021275
169	0x3886afe9	6.422384e-05
170	0xb92b8002	-0.00016355517
171	0x38dc73d0	0.00010511989
172	0x38e42fa6	0.000108807624
173	0xb886a159	-6.419671e-05
174	0x37dc9b63	2.6298401e-05
175	0x35e929c0	1.7372004e-06
176	0xb806bc54	-3.2123484e-05
177	0xb8a4ec94	-7.8641955e-05
178	0xb9828955	-0.00024897853
179	0x80000004	-6e-45
180	0xb7ca438c	-2.411173e-05
181	0xb9031d2b	-0.00012504
182	0x38820c95	6.201227e-05
183	0xb866f4bf	-5.506421e-05
184	0x391a8246	0.00014735115
185	0x38e1af23	0.00010761458
186	0xb950cf70	-0.00019913702
187	0xb9013122	-0.00012320702
188	0x38978eb4	7.2268216e-05
189	0xb864a5dc	-5.4513905e-05
190	0xb804094d	-3.1479914e-05
191	0x00000000	0.0
192	0x3851e872	5.0045965e-05
193	0xb68d7a36	-4.2163547e-06
194	0xb8c4d438	-9.385537e-05
195	0xb7ed06ba	-2.8255734e-05
196	0xb88b015f	-6.628292e-05
197	0x3827ec9f	4.0036273e-05
198	0x39cf962d	0.00039594006
199	0x38bd6c55	9.032401e-05
200	0xb9a6ff4c	-0.00031852198
201	0x396030b4	0.00021380448
202	0x38defaa6	0.00010632472
203	0x374c2f19	1.2170313e-05
204	0xb835c37e	-4.333583e-05
205	0xb850fb36	-4.9825023e-05
206	0x37fcda29	3.014233e-05
207	0xb8f27ca9	-0.00011562679
208	0xb956e651	-0.0002049443
209	0x80000004	-6e-45
210	0xb6bddd26	-5.658384e-06
211	0x3907fd00	0.00012968853
212	0x37c729a4	2.3742039e-05
213	0x38315cbb	4.228645e-05
214	0xb7c18895	-2.3070994e-05
215	0x3877a700	5.904492e-05
216	0xb7579e9a	-1.2851926e-05
217	0x38992237	7.3019815e-05
218	0x3932b96b	0.00017044476
219	0x38413a50	4.6069094e-05
220	0x38721397	5.771554e-05
221	0x00000000	0.0
222	0x38ca3b89	9.6432e-05
223	0x374627f3	1.1811021e-05
224	0x387f9c59	6.0942348e-05
225	0x38abfda6	8.201161e-05
226	0xb805031a	-3.171256e-05
227	0x3870b070	5.738478e-05
228	0x398f2cd1	0.00027308476
229	0x385dd278	5.288652e-05
230	0xb6c3f930	-5.840462e-06
231	0x395561df	0.00020349723
232	0x385c515f	5.252787e-05
233	0xb70c73b8	-8.371593e-06
234	0x37a0bf22	1.916249e-05
235	0xb7d5f51f	-2.5505722e-05
236	0x38163c20	3.5818783e-05
237	0x37942848	1.7661732e-05
238	0xb84d1a38	-4.8900227e-05
239	0x00000004	6e-45
240	0xb81ce845	-3.7409616e-05
241	0xb90a6964	-0.00013199967
242	0x377d88be	1.5111813e-05
243	0xb7919be6	-1.7357943e-05
244	0x393b2220	0.00017846422
245	0x391a7dd5	0.0001473346
246	0xb9119133	-0.00013882369
247	0xb8e96a86	-0.00011130147
248	0x3763706a	1.3556428e-05
249	0xb8178276	-3.6122707e-05
250	0xb5edf890	-1.7730217e-06
251	0x00000000	0.0
252	0xb844c258	-4.691104e-05
253	0xb7efbb5e	-2.857827e-05
254	0xb7cc595b	-2.4360304e-05
255	0x37fe937e	3.0347841e-05
