Algorithms/best_model.pth (torch, 140070 bytes, 12 tensors)

fc.0.weight f4 [128, 4]
00000000: 5080 c0be 5c21 fc3e b38d c83d 1bd1 b73b
00000010: ac57 523e 3e80 293e 9404 3f3e e538 913e
00000020: fa58 43be 0b40 d9bc ad0e 97bf 0873 25bf
00000030: 19a3 10be 3bfd 093e 3e6d 263f e23b dfbe
00000040: c83d 5b3c 3c3e c53e 2a8a 83bf 6479 eabe
00000050: 6b53 20bd 9571 6fbe 4dc9 32be 6075 91be
00000060: fb01 2ebe fcfb b7be e806 78bd 734f 93be
00000070: d9f6 1d3f 2d21 6abe 2aa0 aebf c7d7 07bf
00000080: 0f81 343d e747 873e fb9a f83e 4817 d33d
00000090: c0e4 553e 5d5b 0b3f bb72 22be eb3b 1fba
000000a0: 9dc9 253e 921e 6a3d a148 7b3f 85b7 9c3e
000000b0: 74da bdbe b1f9 9abe 3a35 cebf 5830 5ebe
000000c0: 9bac 5cbe d12d 16be 8dfe babf 2edd 05bf
000000d0: 76c8 a73c a9df 0e3f 25b2 e63f e07c f33e
000000e0: 5445 53bb f2f5 1abe 1d96 68bd b809 5abd
000000f0: db44 ae3e d4f7 5abe 53bf 12be 0075 aebe
00000100: 7174 dbbe 7ff0 e23c 1fe2 803f 0b06 ab3e
00000110: a9aa 393f 35c7 ff3e d68d cebc dd5a a1be
00000120: 1150 e2bd 954d a2be b100 85bf dc12 14bf
00000130: 9816 ddbd 362a b93e 9de6 1d3f 49d2 333e
00000140: accd 6dbe 558b 913e 38b3 e03e 6131 af3e
00000150: c933 883e 13ca 4ebe 673e 3fbe 3ba3 25bd
00000160: 7d30 f03d 52e5 21bd ae96 a9bf ed52 dabe
00000170: 771c 003e 1285 043f 03e3 123f 9767 8a3e
00000180: 2b80 e7be a241 b83e 005d f13e 4c19 babe
00000190: 1a69 ccbe 007a 903e 2d53 cc3e 3482 8bbe
000001a0: 89fb 803e fa93 983e e9e3 d83e 22d2 c6bd
000001b0: b580 463f 52d4 bc3e 26e7 0ebf 96e6 323e
000001c0: 1c0d 5b3d 192b f4be e66b c73e cdaa a1be
000001d0: c2d8 1cbe 2f5b 0bbc 2f31 32be 1a63 603e
000001e0: 55ae 68be fbad dd3e 05fd 313e 09cd 5abd
000001f0: 4607 3d3f f1d9 4a3e f365 5e3e d21c bdbc
00000200: 3a25 a83e 70b9 c7bd 2078 c93d fe93 a5be
00000210: d177 52bd 3f2b f2bc 052b 913e 181d a33d
00000220: 075e 033e 6f92 8b3e 751a 64bf 9d72 bcbe
00000230: abb5 88be fe79 02bf aad6 dc3d 72ba 9a3e
00000240: bea8 0dbe 43a8 20bf 302d cbbf b746 93be
00000250: ad94 9f3d 0cbf 64be 772d ab3e 706d b13e
00000260: 5383 78be a47f 7cbc 03b0 06be 1bd9 bbbe
00000270: bdb5 9b3d 9d3b 7cbe 824f bbbe 5bc1 c83c
00000280: d9ed 97be a339 723e 2016 76bd 93ff cb3c
00000290: da4d 07bd 3dc9 af3e 6563 2b3e 4f32 c03e
000002a0: 04c2 ffbe cd5b 503e db62 033f 305b abbe
000002b0: f569 aa3e 8f08 903e 53a8 08bf 632b ab3d
000002c0: d0bb d23d e689 95be 0803 31be 6b58 09bf
000002d0: e0e0 253e 5a9d bc3e 13a9 fb3d b5a4 e2bd
000002e0: 9fc2 1b3d 5bf8 b23e b376 943f b2ba 303f
000002f0: 944c 72be 7f7a 963d 4406 27bd 1709 e03d
00000300: 66eb 503e bf11 7d3e 63c5 46ba 632f 08be
00000310: 90d7 593d 091b 37be fd27 d2bd ae60 b53e
00000320: c66b afbd f605 8cbd ee46 ecbe 9267 bebe
00000330: 5adf 393e df7e 983e 4789 31be c44c 41be
00000340: b277 00bd affd 7cbd 5cb1 67be 90be 153e
00000350: 5045 743c 5ca2 3fbe 495b 0fbf df59 b03e
00000360: fb80 0abf fb1a 7bbe 86d2 143e c360 d33e
00000370: e83b 0c3f 4caa 7d3e 15dc 663d ca71 483d
00000380: 8cf1 013f 2c8e 143f bd31 133e 2c58 d7bc
00000390: b4d2 fe3e 5484 c5bd eeb7 9b3e fa5e cbbd
000003a0: 669c 183e 13ed ebbe 835c ff3e 6e88 17be
000003b0: 2e67 b33e 1e45 273f 6f41 2e3f d18e 48be
000003c0: 5bb5 d0be d812 21be e302 e6be fd0c c43e
000003d0: 99ec a7be 4143 a8be d4be a33c daf4 133e
000003e0: 8c47 563d 0a0a a73e 41af e93e 9328 e0bd
000003f0: 3593 edbe 1df6 253f a877 a13e 005f d53e
-0.37597895 0.492442 0.09792652 0.005609644 0.20541257 0.16552827 0.1865409 0.2836372
-0.1907691 -0.026519796 -1.1801354 -0.6462865 -0.14124717 0.13475506 0.6501044 -0.43600374
0.013381429 0.38524044 -1.0276539 -0.4579574 -0.039142054 -0.23383172 -0.17459603 -0.28409863
-0.16992943 -0.35934436 -0.06055346 -0.28771552 0.61704785 -0.22864218 -1.3642628 -0.53063625
0.044068392 0.26422045 0.4855574 0.10307175 0.20888042 0.54436284 -0.15864079 -0.0006074297
0.1619019 0.05715806 0.981577 0.30608764 -0.3708073 -0.30268624 -1.6109993 -0.21698129
-0.21550219 -0.14665915 -1.4608933 -0.5229062 0.02048133 0.5581003 1.8023115 0.4755621
-0.0032237368 -0.15132883 -0.056783784 -0.053231925 0.34036908 -0.21383601 -0.14330797 -0.3407364
-0.42862275 0.027702568 1.0069007 0.33403048 0.7252603 0.4995667 -0.025214117 -0.31514636
-0.11050428 -0.31699815 -1.0390836 -0.5784128 -0.10795325 0.36165017 0.6168001 0.17560686
-0.23222989 0.28426614 0.43886733 0.3421736 0.2660201 -0.20194273 -0.18676148 -0.04043887
0.117279984 -0.039525338 -1.3249109 -0.42641392 0.12510858 0.5176555 0.5737764 0.27032158
-0.45214972 0.35987574 0.47141266 -0.36347425 -0.39923936 0.2821808 0.39907208 -0.27247775
0.25191906 0.29800397 0.42361382 -0.097080484 0.7754014 0.36880738 -0.55821455 0.17470774
0.0534793 -0.4768913 0.38949507 -0.31575623 -0.15317062 -0.008505627 -0.17401575 0.21912804
-0.22722752 0.432968 0.17381676 -0.053418193 0.73839223 0.198097 0.21718578 -0.023085032
0.32840902 -0.09752166 0.09837365 -0.32339472 -0.051383797 -0.029561637 0.28353134 0.079645336
0.12828837 0.27260157 -0.8910287 -0.36806193 -0.26701102 -0.50967395 0.107831314 0.3022037
-0.13833901 -0.62756747 -1.5873165 -0.2876489 0.077920295 -0.22338504 0.33433124 0.34653807
-0.24268846 -0.015411291 -0.1315308 -0.36689076 0.07603023 -0.24632116 -0.36584097 0.024506262
-0.2967365 0.23654799 -0.060079694 0.02490214 -0.03303323 0.3433322 0.16737135 0.37538382
-0.4995271 0.20347519 0.51322716 -0.33468008 0.33283964 0.2813153 -0.5338184 0.08357885
0.10289729 -0.2920677 -0.17286313 -0.5365054 0.16199064 0.368388 0.12288108 -0.110665716
0.038027402 0.34955105 1.1598724 0.69034874 -0.23662025 0.07347583 -0.04077746 0.10939234
0.20402297 0.24713801 -0.00075825135 -0.13299327 0.053184092 -0.17881407 -0.102615334 0.35425323
-0.08565478 -0.068370745 -0.46147865 -0.37188393 0.18151608 0.29784295 -0.17337523 -0.1887694
-0.03136415 -0.06176537 -0.22626251 0.14623475 0.0149091035 -0.18714279 -0.55998665 0.34443566
-0.5410306 -0.24522011 0.14533433 0.4128476 0.5477891 0.24771994 0.05636223 0.048936643
0.50759196 0.5802944 0.14374442 -0.02628716 0.4977013 -0.0964438 0.30413765 -0.09930225
0.14903411 -0.4607931 0.49875268 -0.14798138 0.35039657 0.6533984 0.68068594 -0.1958573
-0.40763363 -0.15729845 -0.44924077 0.3829116 -0.32797697 -0.3286381 0.019988455 0.14448872
0.052314326 0.32624847 0.4564152 -0.10945239 -0.46401373 0.64828664 0.31536603 0.41674042

fc.0.bias f4 [128]
00000000: 05dc 953e cef4 133f fe46 5d3c 8b03 2f3f
00000010: 686d cbbe 1f83 343f 125f a13e 2c4f 51be
00000020: 5986 043f 4351 943e a354 18be 8654 c5bc
00000030: 2ba5 863e d273 a83d 6d2d f93e baf4 b93e
00000040: cb9e 033e 7be9 793e 69ef e23d d81c ec3e
00000050: ae60 2e3f d3e5 be3e 7dbc 80be 78ce c4bc
00000060: d543 093f a8d5 d73e dafc 883e 8e8c 873a
00000070: 0724 d03e 7f57 343f 9578 e93c f545 c1bd
00000080: c3c6 f93e f6d0 ff3e f8fa 9abe 61ab 6a3e
00000090: a526 81bc c60f c4be 6cd3 053f a833 243f
000000a0: fb02 253f 7834 0d3f 5549 1c3f 6a8e 57bc
000000b0: 0c9b da3e 0df4 103f 5955 e23d 5de2 2a3f
000000c0: 9872 0b3f 1678 c1be 1dcb 143f 6522 0f3f
000000d0: 82d4 343f f5e5 fa3e 595f 60be b188 09bd
000000e0: aa47 66be 6390 6b3e 4076 ef3e 6f26 8fbe
000000f0: de93 9bbe dbd2 e93d 229a f83e 4dfa 51be
00000100: 3a93 8dbe 368f 8c3e 4b13 303f 23e7 c83e
00000110: 468b 273f 7044 1b3f dc4c 91be 533f dc3e
00000120: 2d97 0c3f 989e 483c 3bf6 503e 9f05 eebe
00000130: b146 a7be 3310 953e 35af df3e 3ee3 9c3e
00000140: f7f8 dd3e a986 89bd ad56 c7be 355b e13e
00000150: 1fbf 933a add1 66bd e9e6 cd3d 4913 be3e
00000160: 2893 52bd 7894 f43e 8547 24be bd65 49bd
00000170: 8d7f 08bf 42c4 b03d 87a9 6a3e c38e 453d
00000180: f9b0 073f 05d4 13be 9952 023f 37ff 793e
00000190: e98a 0dbe 0785 68be 3b9c c33d dabe 93be
000001a0: e49f ec3d e2f3 97bd 3a2e 8a3e 385a e03e
000001b0: 7f2b c53b cc4c f73e f51c 9bbe 6f36 2e3f
000001c0: 94bd 1bbe 4397 14be 3f90 d2bc 26b5 ca3e
000001d0: 3d3d a23e 4546 d13d c324 0a3f b652 013f
000001e0: 9f6f 1d3f f570 e13e 81d6 b7be 11e8 8c3e
000001f0: b174 f83e 70f1 d83e 63b6 023f 2054 a4bd
0.29269424 0.5779542 0.013505695 0.6836478 -0.39731908 0.70512575 0.31517845 -0.20440358
0.517675 0.28968248 -0.14876036 -0.024088155 0.26297888 0.08225216 0.4866747 0.36319524
0.12853543 0.24405472 0.1108082 0.46115756 0.6811627 0.37284717 -0.25143805 -0.024024233
0.5361913 0.42155194 0.2675541 0.0010341571 0.40652487 0.7044601 0.02849988 -0.09437171
0.48784456 0.49964112 -0.302696 0.22916938 -0.015765497 -0.38293284 0.5227573 0.6414132
0.6445767 0.55158186 0.61049396 -0.013156513 0.42696416 0.5662239 0.11051435 0.6675165
0.5447173 -0.3778693 0.58122426 0.55911857 0.7063676 0.49003568 -0.21911372 -0.033577625
-0.22488275 0.23004298 0.46769905 -0.2795901 -0.3038625 0.114171706 0.48555094 -0.20505638
-0.27651387 0.2745301 0.6877944 0.39238843 0.6544689 0.606513 -0.28378952 0.43017063
0.54918176 0.012244843 0.2040643 -0.46488664 -0.3267112 0.29113922 0.4368836 0.30642122
0.43354008 -0.067151375 -0.38933316 0.44014898 0.0011272168 -0.056352306 0.10053808 0.37124088
-0.05140987 0.47769523 -0.16042908 -0.04916929 -0.5331963 0.08631183 0.22916232 0.04823185
0.53004414 -0.14436348 0.50907284 0.24413763 -0.13822521 -0.22706996 0.09551283 -0.28856546
0.11553934 -0.07419564 0.26988393 0.4381883 0.006017148 0.4830078 -0.3029553 0.6805181
-0.15209037 -0.14510827 -0.025703548 0.3959133 0.31687346 0.10218481 0.53962344 0.5051683
0.61498445 0.44031492 -0.3590584 0.27520803 0.48526528 0.42371702 0.5105955 -0.08023858

fc.2.weight f4 [256, 128]
00000000: 319e 633e 1cac 783e 85a8 95be 19e4 cb3d
00000010: 9448 37be 2aae 363e ecd8 9c3d c7d2 bcbe
00000020: 27e6 ea3d c495 e43d 6a36 373c b392 acbe
00000030: de4f c4bd f415 1abf 22f5 363e adfb 1e3e
00000040: 800e 2cbe 001d d93c d3f4 96be 9ff8 393e
00000050: 0b9d 263e e3f0 4d3e 7a84 cfbe 6bd6 49bd
00000060: 9cc2 1f3e f252 1a3e b174 043d 3c02 c53e
00000070: d1c6 3e3e 749f 433e cbbe d63d cec1 963d
00000080: 6e24 a73d e2ba 753e 7213 59be e249 d13d
00000090: af10 c0be a82b a7bc 56cb db3d 1dfa 483e
000000a0: c681 683e 65e5 613e 58a9 843e 8e65 5a3c
000000b0: df24 2f3e fe4b 1c3e c11e 6fbe e01f 3f3e
000000c0: dd2d 213e 100d 2e3d 60a0 893e 4166 483d
000000d0: 2d85 093e 2003 653d 51cd b3bd 53e5 6e3e
000000e0: 4a87 08be eab8 f4bc afd7 433e 3835 55bd
000000f0: 0012 9a3c 4166 8e3c a2e3 bf3d 716e ed3d
00000100: 750d 3fbe e6b0 473d dc00 f23d 157e d43d
00000110: 50c5 513e fe00 523e 7119 a7bd 1f0b 573e
00000120: b30e 703e 643f 18bf a589 313e 9c90 99be
00000130: 597d 53be 42dc 213e 5098 a83d f324 b53d
00000140: 0538 5b3e 609f bdbd 4c5b 04be 2d79 5c3e
00000150: 32d5 94be 88fa 8abe 24f7 febd ceb9 163e
00000160: f4e5 dcbd eec7 413d 0f8c 02be a286 77be
00000170: 82e6 d7bb ab4f 89be 2b32 0f3e f909 f8be
00000180: a331 553e d1d6 82be df06 363e 5ccb bc3d
00000190: 6f37 8abc dfb6 9cbd 65e7 bfbe 103b 95be
000001a0: 77e2 a2be 6de6 a23e e767 ad3d 43b3 323e
000001b0: d748 43bf e773 df3d 024a d3bd d0ae 683e
000001c0: d986 a9bd d273 fcbe c3b9 d63c 8338 913d
000001d0: 49b3 113e aea8 203d 4c50 ec3d 8f38 503e
000001e0: 9a3d 073e a2f8 1e3e bb6f 84bd d2e1 2b3e
000001f0: 7ab4 7d3e d124 1f3e 7f2c 023e e868 86be
00000200: 0f45 763e 7c17 093e 8424 77be 45cf 3e3e
00000210: 4810 a9bd 897c 6b3e 6718 293d 7625 cabe
00000220: adb3 3f3e dcac 403e 5573 cfbd cb1b dabe
00000230: 554f 7abe fa10 0abf 2204 473e 1f93 923d
00000240: 5429 6bbe bac4 abbc 1fbd b7be ba12 263e
00000250: 7232 513e 5f89 3c3e 3ad9 b5be f12b 4fbd
00000260: 7d17 d73d bb5c 9e3d 868c 423d 4a6c d23e
00000270: 61b3 073e 5e00 4b3e 2d13 003e 5a85 373e
00000280: c216 fb3d 9ab3 023e 193f 80be b3db f33d
00000290: 5311 d3be d05a 523d 2292 453e 8544 2f3e
000002a0: bb2a 263e b7e9 503e 5eaa 6a3e 0a57 393d
000002b0: 685c 183e 6df9 5a3e 93fc 55be 6b7f 683e
000002c0: 244e b43d 5f38 0b3b 129a 2a3e 55cb 1f3e
000002d0: fa94 823e 263e 973d 2faf f6bc 582d ab3e
000002e0: 0118 7ebc cb71 d63c e374 603e bafe 2cbe
000002f0: 2630 21bd 357c 923d 6048 ac3d dce7 e83d
00000300: 9fd2 19be b381 0a3e 6e2e 223e c066 0c3e
00000310: 4081 143e 8620 563e e8ee 9b3d 3876 793e
00000320: 49fa e63d a478 28bf 6788 d63c c4b2 38be
00000330: 694a c2bd 91ab 3f3e 09e7 be3d 121a a3bc
00000340: ce5c f23d e9b0 98bd dd7c ddbd 82e3 6a3e
00000350: 50e0 62be 5c78 7cbe b635 72be d7e9 173d
00000360: 9d55 18be 67d3 4c3e 99cd b3bd bc7c d5be
00000370: e874 07be 62e4 93be a83c 153e 4449 cfbe
00000380: 4051 b33d 935b 8fbe cbb8 203e 593e 9ebb
00000390: 16b2 933c 8c1e 173c f65c e9be b1ad 4cbe
000003a0: a4fa 5dbe deda ca3e 148d bf3c 4645 6e3e
000003b0: b179 3abf 6457 613d 08a8 973b 1c26 fb3d
000003c0: f241 13be 6032 d7be b78b 1d3d 5ba5 573e
000003d0: c126 2b3e cb70 0dbd 333a 1b3e ef09 f63d
000003e0: 66a7 3f3e eba0 ad3d 0c11 0cbe d694 443d
000003f0: 30df 013e 2b8b 343e 30ac 633e 730c 3fbe
0.22228314 0.24284405 -0.29230133 0.099556156 -0.1789878 0.17839876 0.07658562 -0.3687956
0.11469679 0.11161378 0.011182407 -0.33705673 -0.09585546 -0.6018975 0.17866948 0.15525694
-0.16802406 0.026503086 -0.2948366 0.18161248 0.16270845 0.20111422 -0.4053076 -0.04927675
0.15601581 0.15070704 0.032337848 0.38478267 0.1863053 0.19103795 0.104856096 0.07361184
0.08161245 0.23997071 -0.21198824 0.1021917 -0.3751273 -0.02040656 0.107321426 0.1962666
0.22705755 0.22060163 0.2591045 0.013329877 0.17103909 0.15263364 -0.23351575 0.18664503
0.15740152 0.042492926 0.2688017 0.048925642 0.13429709 0.055911183 -0.08779395 0.23329668
-0.13332859 -0.02987333 0.19125246 -0.052052706 0.018807411 0.017382743 0.093695894 0.11593331
-0.18657477 0.048752688 0.1181657 0.10375611 0.20485425 0.20508191 -0.081591494 0.21000336
0.23443107 -0.59471726 0.17337663 -0.2999314 -0.20653285 0.15806678 0.08232176 0.08844938
0.21408089 -0.09258914 -0.12925452 0.215306 -0.29068905 -0.27144265 -0.12449482 0.14719316
-0.107860476 0.04730981 -0.1274874 -0.24172452 -0.006588758 -0.26818594 0.13983981 -0.4844511
0.20819716 -0.25554517 0.17776059 0.09218475 -0.016872136 -0.076520674 -0.37481228 -0.29146624
-0.31813404 0.31816426 0.084670834 0.17451195 -0.7628302 0.109107785 -0.1031685 0.22722936
-0.08277673 -0.49307114 0.026211625 0.07090857 0.14228548 0.039223365 0.11538753 0.20334075
0.13207093 0.15524533 -0.064666234 0.16785362 0.24775878 0.15541388 0.12712286 -0.26251912
0.24049781 0.13387865 -0.24135023 0.18633755 -0.082550585 0.22996725 0.041283038 -0.39481705
0.18720885 0.1881594 -0.1012942 -0.4259933 -0.24444325 -0.53932154 0.1943517 0.07156967
-0.22964984 -0.02096783 -0.35886475 0.16218081 0.204294 0.18411778 -0.35517293 -0.050579015
0.10502527 0.07732531 0.047497295 0.41098243 0.13252021 0.19824359 0.12507315 0.17921963
0.122602 0.12763825 -0.2504814 0.11907139 -0.41224155 0.051356137 0.19294026 0.17115982
0.16227238 0.20401655 0.22916552 0.045249023 0.14879 0.21384211 -0.2089713 0.22704856
0.08803967 0.0021243317 0.16660336 0.15604909 0.25504285 0.07384901 -0.03011283 0.33433032
-0.015508653 0.026177308 0.21919589 -0.16894045 -0.03935256 0.07152597 0.08412242 0.11372349
-0.15021752 0.13526039 0.15838024 0.13711071 0.1450243 0.20910844 0.07613927 0.24361503
0.11278207 -0.65809083 0.026188089 -0.18036944 -0.09486849 0.18717791 0.0932141 -0.019909892
0.11834107 -0.07455618 -0.108148314 0.2293835 -0.22155881 -0.24655288 -0.23653302 0.03708824
-0.14876409 0.20002519 -0.08779449 -0.41696727 -0.1322819 -0.2888518 0.1457392 -0.40485585
0.087557316 -0.27999553 0.15695493 -0.0048292098 0.018029254 0.009223592 -0.45578736 -0.19988133
-0.21677643 0.39620107 0.023382701 0.23268613 -0.72841936 0.055014983 0.004628185 0.12263128
-0.14380625 -0.4203062 0.03846332 0.21059172 0.16714002 -0.034531396 0.1515892 0.120136134
0.18716201 0.08477958 -0.13678378 0.047993504 0.12682796 0.17631213 0.22233653 -0.18657093

fc.2.bias f4 [256]
00000000: 9a81 953e 7072 963e 108a 81bd 06a4 fb3d
00000010: f02d 693e 38c3 d83d 3e6e 04bd 3423 873d
00000020: 6557 b4bd 37d1 263e adc5 5b3e ecd0 67bc
00000030: fe2f 463e 9431 cd3c a8c4 503e 8f15 69bd
00000040: 44d8 afbd 3ca7 1dbd 6e20 cbbd 8adc 7f3e
00000050: e354 933e d897 583d 0905 8a3e 9976 93bd
00000060: 58a2 c3bd a71d 8d3e 7831 d23d 155d 6b3e
00000070: d6be 413e 18e4 8e3e 4bd1 6bbd c51a 903e
00000080: b008 8b3e da73 2c3e 4cc7 733e f9cb 923d
00000090: 1653 ff3d 4b95 92bc 049e 4d3e 374c 5a3e
000000a0: 1b49 193e 65a2 373e 1abc 0b3e f62f 723e
000000b0: 6dab 1d3d 70b0 b1bc 1f1d 4b3e 80d6 bdbd
000000c0: a318 75bc d556 0abd ea7e 953d 9677 27bd
000000d0: 6493 513e b2e2 bf3d 629a 1f3e f38c d2bd
000000e0: 2626 433e 2b69 f33d 1acb 04bd 27eb 93bd
000000f0: 89ab 7a3d eaa4 203e 65db 063e 70b4 6dbd
00000100: 56ae 4c3d f93f a7bd 90f8 713e 8dbb 27bd
00000110: d468 053e 7d76 73bd 3b81 5f3e 500d 993e
00000120: be08 abbd 091a 8d3e 2b87 0d3d 6d99 873e
00000130: 7d05 2dbc 9cc0 5c3e 15a7 7c3e 6ffc e6bc
00000140: 10e7 5a3e d4d2 e7bc 6ffc 503e c4d9 0b3d
00000150: 23f5 5f3e 9e58 873e ebf0 00bb 0aa3 3c3d
00000160: a5ec 13bd 777c 583e 8470 893d 838e 09be
00000170: aac5 adbd 5648 34bd bcf2 eebd 2be6 dbbc
00000180: 212c 3e3d ef23 5e3c af6a 6e3d 80ce 043e
00000190: 2f0a 793d 22e2 023e 371b 62bd 9d81 213b
000001a0: 2725 903e 831c 5e3d f1ed 86bd 540a 093e
000001b0: 7284 63bd 8a3c a23d 550b a23d 1175 7ebd
000001c0: d020 0a3e 4673 f23d 7ace d63d cb9b 58bb
000001d0: 2257 60bd 2c54 c53c 2e95 36bd 9a6b 7e3e
000001e0: c262 563e 26c2 223e 87d5 7d3e 67f6 99bd
000001f0: b985 8a3b 277d cf3c 83c5 45bd 17e4 983e
00000200: 32da cabc d831 233e c2ce 503e f224 353c
00000210: 4a69 853e 4b42 2e3e 6d41 8f3e 7f9e 66bd
00000220: 4c6e 3c3d 58bb 7b3e 60f8 463e 3fa5 6b3e
00000230: a9d8 113e aa41 2b3e f10a 6a3e c716 863e
00000240: 555c bdbd 2e66 893e 8986 bb3d 6152 363e
00000250: 192c acbd 603a 983e e771 68bd 84ec 843e
00000260: 94c8 d4bc 21e9 a6bd 39b1 803e d69e 5a3e
00000270: 2ba3 f83d c5db b1bd 41c2 6abd 1afc a6ba
00000280: b18a 4e3e d9a1 823e 8b48 ce3c 2330 9a3e
00000290: d4cb 69bd b77d 603e 1d02 5f3e 0e7e 3b3e
000002a0: 7916 5a3e ee87 b7bb 1200 3d3c 9f0e 773e
000002b0: 454d 213d 994e 823e 7018 8e3e debf 3dbe
000002c0: c3e0 babd 1411 febb 4d7c 873e f3e2 efbd
000002d0: 4a21 623e cc86 9d3d cba7 2a3e bf69 6c3e
000002e0: 0831 143e 0038 1f3e 0df4 993e 8fa5 50bd
000002f0: 064a 2cbd ac97 8d3d 3806 513e d015 193e
00000300: ef15 bebb 4e11 bebd d9a8 8abd dc42 7e3d
00000310: ce64 4d3e fe6d 963e 7eb2 8fbd a668 cbbc
00000320: 3f43 0ebc d7c5 433e 08f5 9fbd 0e1d 493d
00000330: 3b3d 7c3b 0867 353e a0f1 1f3e 2d46 90bd
00000340: 4181 743e 60a6 853e c65c 7b3b 8635 f7bc
00000350: 08e5 fb3d e75f dbbd daa5 733c cfa5 9fbc
00000360: e87b 0f3e e88a 9b3e c6b0 583e 3d1b d8bc
00000370: 78db 7e3e a66a f43d db22 3e3d d110 2f3e
00000380: cd33 bfbd b2f5 6a3e cfeb 5fbd 7c58 8ebd
00000390: bed9 873e 4c89 fbbc 13ff 243d 4508 67bd
000003a0: 6038 963e 8dd3 2e3d f154 2e3e b669 9fbd
000003b0: 499f 4abd 1af9 743e 4748 e13d ae9c 953e
000003c0: eb05 5b3e b127 2dbd 37e7 0c3e 25a6 7fbd
000003d0: 6ed7 81bd f8d2 023d 12aa b3bd d8b2 aebc
000003e0: 3cac 663e af20 963e ed8b 673e 0574 9b3e
000003f0: fc52 f5bc 80c9 93bd 4b19 f23d 9762 9c3e
0.2920044 0.29384184 -0.063251615 0.12287144 0.2277143 0.1058411 -0.032331698 0.06598511
-0.08805732 0.16290747 0.21462126 -0.014148932 0.19354245 0.025048055 0.20387518 -0.056905326
-0.08586171 -0.038489565 -0.09918295 0.24986473 0.287757 0.052879184 0.26956967 -0.07200355
-0.09552449 0.27561685 0.10263342 0.22984727 0.18920454 0.27908397 -0.057572644 0.28145424
0.27155066 0.16841069 0.23806494 0.07167811 0.12467019 -0.017893454 0.2007981 0.21318136
0.14969294 0.17933042 0.13645974 0.23651108 0.038493562 -0.021690577 0.19835328 -0.09269428
-0.014959487 -0.033774216 0.072995976 -0.04088553 0.20466381 0.093694106 0.15586236 -0.1028079
0.19057521 0.118852936 -0.032420255 -0.07222586 0.061198745 0.1568791 0.1316963 -0.058033407
0.049970947 -0.08166499 0.23629975 -0.040950347 0.1302827 -0.05943917 0.21826641 0.2989297
-0.08351277 0.27558926 0.034552734 0.26484242 -0.010560391 0.2155785 0.24673112 -0.028196542
0.21377206 -0.028298773 0.20408796 0.034143224 0.21870856 0.26434797 -0.0019674848 0.046053924
-0.036114354 0.2114123 0.06710914 -0.1343327 -0.08484967 -0.044014297 -0.11667392 -0.026843151
0.046428803 0.013558372 0.05820721 0.12969398 0.060800727 0.12781575 -0.055201735 0.0024643906
0.28153345 0.05422641 -0.065883525 0.13382846 -0.05554623 0.07921703 0.07912318 -0.062123362
0.1348908 0.11838393 0.10488601 -0.0033051844 -0.054770596 0.024087988 -0.044575863 0.24845734
0.2093611 0.15894374 0.24788485 -0.07517701 0.0042273668 0.025328232 -0.048284065 0.2986152
-0.024762247 0.15936983 0.20391372 0.011056172 0.26056892 0.17017476 0.27979603 -0.056303497
0.046003625 0.24583185 0.19430685 0.23012255 0.14242806 0.16724268 0.22855736 0.26189253
-0.092461266 0.2683577 0.0915652 0.17804863 -0.084068485 0.29732037 -0.05674925 0.25961697
-0.02597455 -0.081499346 0.2513521 0.21349654 0.12140497 -0.08684496 -0.05731416 -0.0012739927
0.20170094 0.25514105 0.025181076 0.3011485 -0.05707915 0.21922956 0.2177815 0.18309805
0.21297635 -0.005600921 0.011535661 0.24126671 0.03938033 0.2545059 0.2775302 -0.18530223
-0.09124901 -0.0077535007 0.2646202 -0.11713209 0.22083011 0.07691726 0.1666557 0.23087214
0.14471829 0.15548706 0.30069008 -0.05093914 -0.04206278 0.06913695 0.20412529 0.14949727
-0.0058009545 -0.09280644 -0.067704864 0.06207548 0.20057985 0.29380792 -0.070164666 -0.024830174
-0.008683025 0.19118439 -0.07810408 0.049099974 0.0038488645 0.17715085 0.15619516 -0.07044635
0.23877431 0.26103497 0.0038354858 -0.03017689 0.122995436 -0.10711651 0.014871085 -0.019488243
0.1401211 0.30379415 0.21161184 -0.026380176 0.24888408 0.11934404 0.04641996 0.17096259
-0.09336052 0.22945288 -0.054668244 -0.06950471 0.26533312 -0.030705117 0.04028232 -0.05640437
0.29339886 0.04268222 0.1702459 -0.07783835 -0.049468312 0.2392315 0.11000114 0.292211
0.21388976 -0.04227418 0.13760076 -0.062414307 -0.06339918 0.031939477 -0.08772673 -0.021325514
0.2252664 0.2932181 0.22611971 0.30361953 -0.029946797 -0.072161674 0.118212305 0.30543968

fc.4.weight f4 [2, 256]
00000000: 2d42 5a3e 4775 713e 4089 3f3d d7cb 253f
00000010: ad29 1c3e 3ee5 cebe 20ef 27bd 19ed 5e3c
00000020: 12b4 bb3c a9f4 543e 0984 6c3e 489f bfbb
00000030: c5e6 673e 3bbf 8c3e 2f70 523e 6de6 fb3c
00000040: 7a80 323d bdfa 11bc 526e 93ba 35c5 593e
00000050: e38a 523e e0fe 053c 13e2 7c3e 80cd c03c
00000060: b004 07bc f44c 573e fdd4 433d e7ff 4e3e
00000070: 64e2 783e 2276 6a3e 61bf 38bd dae1 793e
00000080: 6b23 7b3e 6625 c33e e310 4a3e 8f55 863c
00000090: f1ea 523e 12ce 5ebd 5ff6 513e 876d 9fbe
000000a0: a3ee 2e3e f664 7c3e 7d6c 773e ff95 403e
000000b0: e721 673c 68f3 42bd 6bcc 593e e3fa cdbc
000000c0: a095 183d cf8e b5bc 4558 babc 5cc2 183d
000000d0: eb21 673e 5a38 d33d ef12 803e 3491 e2bc
000000e0: 4551 703e f41a e23e 0e33 603d 42cc 35bd
000000f0: 07b2 6d3e 92b6 293f 8b42 90be ca91 ebbb
00000100: b889 f4bc 84cd 9a3c 0fa2 863e cf79 52bd
00000110: 4fb1 2d3e a3b3 93bc f5ce a23e 1b21 473e
00000120: 48e2 293d bf97 803e 09d0 10bd b4ae 5e3e
00000130: 8370 38b9 ca0b 4b3e 9656 7a3e 304b f9bc
00000140: 512f 343e b229 faba 1d28 403e 1e6b 83bc
00000150: fdaa 63be 80ad 533e 1dca 023b cd7d 95bc
00000160: 5549 25bc b350 963e c09c d5bc 6dae 9e3c
00000170: f16b 35bd 2078 cfba 87a7 01be 5963 3fbd
00000180: 6480 cc3e ef99 363e 69fb 60bc b8e5 563e
00000190: a043 3cbc 9702 4a3f 1d1f 953c 7351 503c
000001a0: a674 5c3e 7fa6 343b a3dc 03bd 4ab4 5f3f
000001b0: 56bc 5fbc 3ac8 453d 7d12 01bc 8287 2e3c
000001c0: c592 88be 73c8 503e 884a 853e f0e1 1dbd
000001d0: 33e9 3dbd 4fa4 f8bb 7016 2f3c 4ba8 2c3e
000001e0: 3c27 563e 8651 3f3e 775c 4a3e 9977 b03c
000001f0: 5bcd 74bc 0415 773d 5aa7 6b3d 2063 5d3e
00000200: c8dc 08bb e8c0 0ebd fd4a 4d3e 44e3 d53c
00000210: 17de 663e 00bd b03e b2dc 1f3e 0e80 c3bb
00000220: 310c debc 4417 9f3e 4726 713e a1b4 833e
00000230: 87b8 2f3e 55a3 7c3e e031 623e 917f 303e
00000240: 87ca d4bc 9840 423e bc3b 043f eb7b 5b3e
00000250: 6887 cc3c 31b6 23be 0593 66bd 5e87 4a3e
00000260: 04ea 6fbd 7708 aebc 883e 573e ec1f 583e
00000270: 1adf a33e a8b6 8ebc 34bf 7c3d d8cd b5bc
00000280: 8224 5b3e c23e 343e 2f63 1ebd 7f9b 593e
00000290: 5aa3 99bc 2623 2fbe 3c88 643e fea5 8ebe
000002a0: a8e8 613e a085 063c 5f12 1cbd 73b6 7e3e
000002b0: 0730 bcbb 99ae 403e 0e24 313e 158e b1bd
000002c0: 0195 89bc 0364 503d 1dbd 573e 6a63 debc
000002d0: 38f9 b33e eee5 503d 2646 7c3e b707 803e
000002e0: 8905 8c3e 62c6 493e 4e0c 7a3e 9f7f cbbc
000002f0: 3b0a 423d e3b2 ddbc bfc1 563e 1a35 403e
00000300: 4521 07be 185f 763d a090 8a3a 2e69 4c3d
00000310: bd1d 543e 6d3f 733e b881 7bbc cbe6 00bd
00000320: b882 0abd 72d1 4a3e aa9b 9abc e5da 913e
00000330: fbff fabc 28b9 623e 2924 313e a930 efbc
00000340: 7437 843e f125 493e 4450 b93b c8be 8fbb
00000350: f039 c63e 5101 4cbe 93cf 52bd c810 4d3d
00000360: 0a95 803f 21c2 733e 0e00 863e 6e3a 51bd
00000370: b1db 4f3e c29b 833e 4d30 35bb 540f 3b3e
00000380: 2772 f1ba 2428 263e 52bc 743c 8d76 033d
00000390: b34a 493e c56a d1bd b908 883c 46dd d2bc
000003a0: a6f1 6c3e 58be 8a3c 0589 a53e 76b9 b23c
000003b0: b6ba 6abc 1f83 783e 1237 ef3e acb9 593e
000003c0: d490 5c3e 9e30 90bc 7395 703e 8506 35bd
000003d0: 7fed cabc 70ea 1cbd b045 a9bc d6bc 74bd
000003e0: 636d 90be 4d05 713e fac0 233e 6efe 813e
000003f0: 8016 86bb 2ae2 743d db4c 3f3e 15be 643e
0.21314307 0.23579894 0.04676175 0.6476416 0.15250273 -0.40409273 -0.04099953 0.013606333
0.022913013 0.20796455 0.23097242 -0.005847845 0.22646625 0.27489647 0.20550607 0.030749524
0.043579556 -0.008909878 -0.0011248088 0.21266635 0.20560794 0.008178443 0.24695615 0.02353549
-0.008240864 0.21025449 0.047810543 0.20214806 0.24305111 0.22896627 -0.04510439 0.24402562
0.2452523 0.3811447 0.19733004 0.01639822 0.20597436 -0.054395743 0.2050414 -0.3113825
0.1708322 0.24647889 0.24162479 0.18807219 0.014107204 -0.04759541 0.21269386 -0.025144046
0.03725207 -0.022162823 -0.022747168 0.03729473 0.22571532 0.103134826 0.25014445 -0.027657129
0.23468502 0.4416119 0.05473619 -0.04438425 0.23212443 0.66294205 -0.28175768 -0.0071890103
-0.029850826 0.018896826 0.26295516 -0.051385697 0.16962169 -0.018029993 0.3179852 0.19446222
0.041475564 0.25115773 -0.035354648 0.21746331 -0.00017589521 0.19828716 0.24447092 -0.03043136
0.17596175 -0.0019085912 0.18765302 -0.016042288 -0.22233196 0.20671654 0.0019956895 -0.018248463
-0.0100882845 0.29358444 -0.02607572 0.019370282 -0.044292394 -0.0015828647 -0.12661563 -0.046725605
0.39941704 0.17832159 -0.013731816 0.20986068 -0.011490732 0.789102 0.018203313 0.0127147315
0.21528873 0.002756506 -0.032192837 0.87384474 -0.013655743 0.048286654 -0.007877943 0.010652425
-0.26674476 0.20388965 0.26033425 -0.03854555 -0.046364974 -0.0075879465 0.010686502 0.16861074
0.20913404 0.18683442 0.19761835 0.021541404 -0.014941539 0.060322776 0.057532646 0.21619844
-0.002088355 -0.03485194 0.20048137 0.026109345 0.22545658 0.34519196 0.15611532 -0.005966193
-0.027105423 0.31072438 0.23549758 0.25723746 0.17160235 0.24671681 0.22089338 0.17236163
-0.025975479 0.18969953 0.5165365 0.2143399 0.02496691 -0.1598747 -0.056292553 0.19778201
-0.058572784 -0.02124427 0.21019948 0.21105927 0.3200615 -0.017421082 0.061705783 -0.02219288
0.21400645 0.17602065 -0.038668808 0.21250723 -0.01875465 -0.17103252 0.22317594 -0.27861017
0.22061408 0.00821057 -0.038103458 0.24874286 -0.00574303 0.18816604 0.1729891 -0.08669678
-0.016794683 0.05087663 0.21068235 -0.027147014 0.35151076 0.051000528 0.24636135 0.25005886
0.27347973 0.19704583 0.24418756 -0.024841128 0.047373038 -0.027062839 0.20972346 0.18770257
-0.13196285 0.060149282 0.0010571666 0.049904995 0.20714469 0.23754664 -0.015350752 -0.0314701
-0.03381607 0.1980646 -0.018873055 0.28487316 -0.03063964 0.22140944 0.1729895 -0.029198008
0.25823557 0.1964338 0.0056553204 -0.0043867566 0.38716078 -0.19922377 -0.05146749 0.050064832
1.0045483 0.23804523 0.26171917 -0.051081114 0.2029865 0.2570477 -0.0027647198 0.18267566
-0.0018420861 0.1622625 0.014937477 0.03209548 0.19657402 -0.10225443 0.016605722 -0.025740277
0.23139057 0.016936466 0.323311 0.02181695 -0.014326742 0.24268769 0.46721703 0.21262234
0.21539623 -0.017601307 0.2349451 -0.04419567 -0.02477145 -0.038309515 -0.020663112 -0.0597504
-0.28208455 0.23537178 0.15991583 0.25389427 -0.0040920377 0.059786 0.18681662 0.22338136

fc.4.bias f4 [2]
00000000: 3caf 463e 2d3e 393e
0.19402784 0.18090124

net.1.0.weight f4 [128, 4]
00000000: 5080 c0be 5c21 fc3e b38d c83d 1bd1 b73b
00000010: ac57 523e 3e80 293e 9404 3f3e e538 913e
00000020: fa58 43be 0b40 d9bc ad0e 97bf 0873 25bf
00000030: 19a3 10be 3bfd 093e 3e6d 263f e23b dfbe
00000040: c83d 5b3c 3c3e c53e 2a8a 83bf 6479 eabe
00000050: 6b53 20bd 9571 6fbe 4dc9 32be 6075 91be
00000060: fb01 2ebe fcfb b7be e806 78bd 734f 93be
00000070: d9f6 1d3f 2d21 6abe 2aa0 aebf c7d7 07bf
00000080: 0f81 343d e747 873e fb9a f83e 4817 d33d
00000090: c0e4 553e 5d5b 0b3f bb72 22be eb3b 1fba
000000a0: 9dc9 253e 921e 6a3d a148 7b3f 85b7 9c3e
000000b0: 74da bdbe b1f9 9abe 3a35 cebf 5830 5ebe
000000c0: 9bac 5cbe d12d 16be 8dfe babf 2edd 05bf
000000d0: 76c8 a73c a9df 0e3f 25b2 e63f e07c f33e
000000e0: 5445 53bb f2f5 1abe 1d96 68bd b809 5abd
000000f0: db44 ae3e d4f7 5abe 53bf 12be 0075 aebe
00000100: 7174 dbbe 7ff0 e23c 1fe2 803f 0b06 ab3e
00000110: a9aa 393f 35c7 ff3e d68d cebc dd5a a1be
00000120: 1150 e2bd 954d a2be b100 85bf dc12 14bf
00000130: 9816 ddbd 362a b93e 9de6 1d3f 49d2 333e
00000140: accd 6dbe 558b 913e 38b3 e03e 6131 af3e
00000150: c933 883e 13ca 4ebe 673e 3fbe 3ba3 25bd
00000160: 7d30 f03d 52e5 21bd ae96 a9bf ed52 dabe
00000170: 771c 003e 1285 043f 03e3 123f 9767 8a3e
00000180: 2b80 e7be a241 b83e 005d f13e 4c19 babe
00000190: 1a69 ccbe 007a 903e 2d53 cc3e 3482 8bbe
000001a0: 89fb 803e fa93 983e e9e3 d83e 22d2 c6bd
000001b0: b580 463f 52d4 bc3e 26e7 0ebf 96e6 323e
000001c0: 1c0d 5b3d 192b f4be e66b c73e cdaa a1be
000001d0: c2d8 1cbe 2f5b 0bbc 2f31 32be 1a63 603e
000001e0: 55ae 68be fbad dd3e 05fd 313e 09cd 5abd
000001f0: 4607 3d3f f1d9 4a3e f365 5e3e d21c bdbc
00000200: 3a25 a83e 70b9 c7bd 2078 c93d fe93 a5be
00000210: d177 52bd 3f2b f2bc 052b 913e 181d a33d
00000220: 075e 033e 6f92 8b3e 751a 64bf 9d72 bcbe
00000230: abb5 88be fe79 02bf aad6 dc3d 72ba 9a3e
00000240: bea8 0dbe 43a8 20bf 302d cbbf b746 93be
00000250: ad94 9f3d 0cbf 64be 772d ab3e 706d b13e
00000260: 5383 78be a47f 7cbc 03b0 06be 1bd9 bbbe
00000270: bdb5 9b3d 9d3b 7cbe 824f bbbe 5bc1 c83c
00000280: d9ed 97be a339 723e 2016 76bd 93ff cb3c
00000290: da4d 07bd 3dc9 af3e 6563 2b3e 4f32 c03e
000002a0: 04c2 ffbe cd5b 503e db62 033f 305b abbe
000002b0: f569 aa3e 8f08 903e 53a8 08bf 632b ab3d
000002c0: d0bb d23d e689 95be 0803 31be 6b58 09bf
000002d0: e0e0 253e 5a9d bc3e 13a9 fb3d b5a4 e2bd
000002e0: 9fc2 1b3d 5bf8 b23e b376 943f b2ba 303f
000002f0: 944c 72be 7f7a 963d 4406 27bd 1709 e03d
00000300: 66eb 503e bf11 7d3e 63c5 46ba 632f 08be
00000310: 90d7 593d 091b 37be fd27 d2bd ae60 b53e
00000320: c66b afbd f605 8cbd ee46 ecbe 9267 bebe
00000330: 5adf 393e df7e 983e 4789 31be c44c 41be
00000340: b277 00bd affd 7cbd 5cb1 67be 90be 153e
00000350: 5045 743c 5ca2 3fbe 495b 0fbf df59 b03e
00000360: fb80 0abf fb1a 7bbe 86d2 143e c360 d33e
00000370: e83b 0c3f 4caa 7d3e 15dc 663d ca71 483d
00000380: 8cf1 013f 2c8e 143f bd31 133e 2c58 d7bc
00000390: b4d2 fe3e 5484 c5bd eeb7 9b3e fa5e cbbd
000003a0: 669c 183e 13ed ebbe 835c ff3e 6e88 17be
000003b0: 2e67 b33e 1e45 273f 6f41 2e3f d18e 48be
000003c0: 5bb5 d0be d812 21be e302 e6be fd0c c43e
000003d0: 99ec a7be 4143 a8be d4be a33c daf4 133e
000003e0: 8c47 563d 0a0a a73e 41af e93e 9328 e0bd
000003f0: 3593 edbe 1df6 253f a877 a13e 005f d53e
-0.37597895 0.492442 0.09792652 0.005609644 0.20541257 0.16552827 0.1865409 0.2836372
-0.1907691 -0.026519796 -1.1801354 -0.6462865 -0.14124717 0.13475506 0.6501044 -0.43600374
0.013381429 0.38524044 -1.0276539 -0.4579574 -0.039142054 -0.23383172 -0.17459603 -0.28409863
-0.16992943 -0.35934436 -0.06055346 -0.28771552 0.61704785 -0.22864218 -1.3642628 -0.53063625
0.044068392 0.26422045 0.4855574 0.10307175 0.20888042 0.54436284 -0.15864079 -0.0006074297
0.1619019 0.05715806 0.981577 0.30608764 -0.3708073 -0.30268624 -1.6109993 -0.21698129
-0.21550219 -0.14665915 -1.4608933 -0.5229062 0.02048133 0.5581003 1.8023115 0.4755621
-0.0032237368 -0.15132883 -0.056783784 -0.053231925 0.34036908 -0.21383601 -0.14330797 -0.3407364
-0.42862275 0.027702568 1.0069007 0.33403048 0.7252603 0.4995667 -0.025214117 -0.31514636
-0.11050428 -0.31699815 -1.0390836 -0.5784128 -0.10795325 0.36165017 0.6168001 0.17560686
-0.23222989 0.28426614 0.43886733 0.3421736 0.2660201 -0.20194273 -0.18676148 -0.04043887
0.117279984 -0.039525338 -1.3249109 -0.42641392 0.12510858 0.5176555 0.5737764 0.27032158
-0.45214972 0.35987574 0.47141266 -0.36347425 -0.39923936 0.2821808 0.39907208 -0.27247775
0.25191906 0.29800397 0.42361382 -0.097080484 0.7754014 0.36880738 -0.55821455 0.17470774
0.0534793 -0.4768913 0.38949507 -0.31575623 -0.15317062 -0.008505627 -0.17401575 0.21912804
-0.22722752 0.432968 0.17381676 -0.053418193 0.73839223 0.198097 0.21718578 -0.023085032
0.32840902 -0.09752166 0.09837365 -0.32339472 -0.051383797 -0.029561637 0.28353134 0.079645336
0.12828837 0.27260157 -0.8910287 -0.36806193 -0.26701102 -0.50967395 0.107831314 0.3022037
-0.13833901 -0.62756747 -1.5873165 -0.2876489 0.077920295 -0.22338504 0.33433124 0.34653807
-0.24268846 -0.015411291 -0.1315308 -0.36689076 0.07603023 -0.24632116 -0.36584097 0.024506262
-0.2967365 0.23654799 -0.060079694 0.02490214 -0.03303323 0.3433322 0.16737135 0.37538382
-0.4995271 0.20347519 0.51322716 -0.33468008 0.33283964 0.2813153 -0.5338184 0.08357885
0.10289729 -0.2920677 -0.17286313 -0.5365054 0.16199064 0.368388 0.12288108 -0.110665716
0.038027402 0.34955105 1.1598724 0.69034874 -0.23662025 0.07347583 -0.04077746 0.10939234
0.20402297 0.24713801 -0.00075825135 -0.13299327 0.053184092 -0.17881407 -0.102615334 0.35425323
-0.08565478 -0.068370745 -0.46147865 -0.37188393 0.18151608 0.29784295 -0.17337523 -0.1887694
-0.03136415 -0.06176537 -0.22626251 0.14623475 0.0149091035 -0.18714279 -0.55998665 0.34443566
-0.5410306 -0.24522011 0.14533433 0.4128476 0.5477891 0.24771994 0.05636223 0.048936643
0.50759196 0.5802944 0.14374442 -0.02628716 0.4977013 -0.0964438 0.30413765 -0.09930225
0.14903411 -0.4607931 0.49875268 -0.14798138 0.35039657 0.6533984 0.68068594 -0.1958573
-0.40763363 -0.15729845 -0.44924077 0.3829116 -0.32797697 -0.3286381 0.019988455 0.14448872
0.052314326 0.32624847 0.4564152 -0.10945239 -0.46401373 0.64828664 0.31536603 0.41674042

net.1.0.bias f4 [128]
00000000: 05dc 953e cef4 133f fe46 5d3c 8b03 2f3f
00000010: 686d cbbe 1f83 343f 125f a13e 2c4f 51be
00000020: 5986 043f 4351 943e a354 18be 8654 c5bc
00000030: 2ba5 863e d273 a83d 6d2d f93e baf4 b93e
00000040: cb9e 033e 7be9 793e 69ef e23d d81c ec3e
00000050: ae60 2e3f d3e5 be3e 7dbc 80be 78ce c4bc
00000060: d543 093f a8d5 d73e dafc 883e 8e8c 873a
00000070: 0724 d03e 7f57 343f 9578 e93c f545 c1bd
00000080: c3c6 f93e f6d0 ff3e f8fa 9abe 61ab 6a3e
00000090: a526 81bc c60f c4be 6cd3 053f a833 243f
000000a0: fb02 253f 7834 0d3f 5549 1c3f 6a8e 57bc
000000b0: 0c9b da3e 0df4 103f 5955 e23d 5de2 2a3f
000000c0: 9872 0b3f 1678 c1be 1dcb 143f 6522 0f3f
000000d0: 82d4 343f f5e5 fa3e 595f 60be b188 09bd
000000e0: aa47 66be 6390 6b3e 4076 ef3e 6f26 8fbe
000000f0: de93 9bbe dbd2 e93d 229a f83e 4dfa 51be
00000100: 3a93 8dbe 368f 8c3e 4b13 303f 23e7 c83e
00000110: 468b 273f 7044 1b3f dc4c 91be 533f dc3e
00000120: 2d97 0c3f 989e 483c 3bf6 503e 9f05 eebe
00000130: b146 a7be 3310 953e 35af df3e 3ee3 9c3e
00000140: f7f8 dd3e a986 89bd ad56 c7be 355b e13e
00000150: 1fbf 933a add1 66bd e9e6 cd3d 4913 be3e
00000160: 2893 52bd 7894 f43e 8547 24be bd65 49bd
00000170: 8d7f 08bf 42c4 b03d 87a9 6a3e c38e 453d
00000180: f9b0 073f 05d4 13be 9952 023f 37ff 793e
00000190: e98a 0dbe 0785 68be 3b9c c33d dabe 93be
000001a0: e49f ec3d e2f3 97bd 3a2e 8a3e 385a e03e
000001b0: 7f2b c53b cc4c f73e f51c 9bbe 6f36 2e3f
000001c0: 94bd 1bbe 4397 14be 3f90 d2bc 26b5 ca3e
000001d0: 3d3d a23e 4546 d13d c324 0a3f b652 013f
000001e0: 9f6f 1d3f f570 e13e 81d6 b7be 11e8 8c3e
000001f0: b174 f83e 70f1 d83e 63b6 023f 2054 a4bd
0.29269424 0.5779542 0.013505695 0.6836478 -0.39731908 0.70512575 0.31517845 -0.20440358
0.517675 0.28968248 -0.14876036 -0.024088155 0.26297888 0.08225216 0.4866747 0.36319524
0.12853543 0.24405472 0.1108082 0.46115756 0.6811627 0.37284717 -0.25143805 -0.024024233
0.5361913 0.42155194 0.2675541 0.0010341571 0.40652487 0.7044601 0.02849988 -0.09437171
0.48784456 0.49964112 -0.302696 0.22916938 -0.015765497 -0.38293284 0.5227573 0.6414132
0.6445767 0.55158186 0.61049396 -0.013156513 0.42696416 0.5662239 0.11051435 0.6675165
0.5447173 -0.3778693 0.58122426 0.55911857 0.7063676 0.49003568 -0.21911372 -0.033577625
-0.22488275 0.23004298 0.46769905 -0.2795901 -0.3038625 0.114171706 0.48555094 -0.20505638
-0.27651387 0.2745301 0.6877944 0.39238843 0.6544689 0.606513 -0.28378952 0.43017063
0.54918176 0.012244843 0.2040643 -0.46488664 -0.3267112 0.29113922 0.4368836 0.30642122
0.43354008 -0.067151375 -0.38933316 0.44014898 0.0011272168 -0.056352306 0.10053808 0.37124088
-0.05140987 0.47769523 -0.16042908 -0.04916929 -0.5331963 0.08631183 0.22916232 0.04823185
0.53004414 -0.14436348 0.50907284 0.24413763 -0.13822521 -0.22706996 0.09551283 -0.28856546
0.11553934 -0.07419564 0.26988393 0.4381883 0.006017148 0.4830078 -0.3029553 0.6805181
-0.15209037 -0.14510827 -0.025703548 0.3959133 0.31687346 0.10218481 0.53962344 0.5051683
0.61498445 0.44031492 -0.3590584 0.27520803 0.48526528 0.42371702 0.5105955 -0.08023858

net.1.2.weight f4 [256, 128]
00000000: 319e 633e 1cac 783e 85a8 95be 19e4 cb3d
00000010: 9448 37be 2aae 363e ecd8 9c3d c7d2 bcbe
00000020: 27e6 ea3d c495 e43d 6a36 373c b392 acbe
00000030: de4f c4bd f415 1abf 22f5 363e adfb 1e3e
00000040: 800e 2cbe 001d d93c d3f4 96be 9ff8 393e
00000050: 0b9d 263e e3f0 4d3e 7a84 cfbe 6bd6 49bd
00000060: 9cc2 1f3e f252 1a3e b174 043d 3c02 c53e
00000070: d1c6 3e3e 749f 433e cbbe d63d cec1 963d
00000080: 6e24 a73d e2ba 753e 7213 59be e249 d13d
00000090: af10 c0be a82b a7bc 56cb db3d 1dfa 483e
000000a0: c681 683e 65e5 613e 58a9 843e 8e65 5a3c
000000b0: df24 2f3e fe4b 1c3e c11e 6fbe e01f 3f3e
000000c0: dd2d 213e 100d 2e3d 60a0 893e 4166 483d
000000d0: 2d85 093e 2003 653d 51cd b3bd 53e5 6e3e
000000e0: 4a87 08be eab8 f4bc afd7 433e 3835 55bd
000000f0: 0012 9a3c 4166 8e3c a2e3 bf3d 716e ed3d
00000100: 750d 3fbe e6b0 473d dc00 f23d 157e d43d
00000110: 50c5 513e fe00 523e 7119 a7bd 1f0b 573e
00000120: b30e 703e 643f 18bf a589 313e 9c90 99be
00000130: 597d 53be 42dc 213e 5098 a83d f324 b53d
00000140: 0538 5b3e 609f bdbd 4c5b 04be 2d79 5c3e
00000150: 32d5 94be 88fa 8abe 24f7 febd ceb9 163e
00000160: f4e5 dcbd eec7 413d 0f8c 02be a286 77be
00000170: 82e6 d7bb ab4f 89be 2b32 0f3e f909 f8be
00000180: a331 553e d1d6 82be df06 363e 5ccb bc3d
00000190: 6f37 8abc dfb6 9cbd 65e7 bfbe 103b 95be
000001a0: 77e2 a2be 6de6 a23e e767 ad3d 43b3 323e
000001b0: d748 43bf e773 df3d 024a d3bd d0ae 683e
000001c0: d986 a9bd d273 fcbe c3b9 d63c 8338 913d
000001d0: 49b3 113e aea8 203d 4c50 ec3d 8f38 503e
000001e0: 9a3d 073e a2f8 1e3e bb6f 84bd d2e1 2b3e
000001f0: 7ab4 7d3e d124 1f3e 7f2c 023e e868 86be
00000200: 0f45 763e 7c17 093e 8424 77be 45cf 3e3e
00000210: 4810 a9bd 897c 6b3e 6718 293d 7625 cabe
00000220: adb3 3f3e dcac 403e 5573 cfbd cb1b dabe
00000230: 554f 7abe fa10 0abf 2204 473e 1f93 923d
00000240: 5429 6bbe bac4 abbc 1fbd b7be ba12 263e
00000250: 7232 513e 5f89 3c3e 3ad9 b5be f12b 4fbd
00000260: 7d17 d73d bb5c 9e3d 868c 423d 4a6c d23e
00000270: 61b3 073e 5e00 4b3e 2d13 003e 5a85 373e
00000280: c216 fb3d 9ab3 023e 193f 80be b3db f33d
00000290: 5311 d3be d05a 523d 2292 453e 8544 2f3e
000002a0: bb2a 263e b7e9 503e 5eaa 6a3e 0a57 393d
000002b0: 685c 183e 6df9 5a3e 93fc 55be 6b7f 683e
000002c0: 244e b43d 5f38 0b3b 129a 2a3e 55cb 1f3e
000002d0: fa94 823e 263e 973d 2faf f6bc 582d ab3e
000002e0: 0118 7ebc cb71 d63c e374 603e bafe 2cbe
000002f0: 2630 21bd 357c 923d 6048 ac3d dce7 e83d
00000300: 9fd2 19be b381 0a3e 6e2e 223e c066 0c3e
00000310: 4081 143e 8620 563e e8ee 9b3d 3876 793e
00000320: 49fa e63d a478 28bf 6788 d63c c4b2 38be
00000330: 694a c2bd 91ab 3f3e 09e7 be3d 121a a3bc
00000340: ce5c f23d e9b0 98bd dd7c ddbd 82e3 6a3e
00000350: 50e0 62be 5c78 7cbe b635 72be d7e9 173d
00000360: 9d55 18be 67d3 4c3e 99cd b3bd bc7c d5be
00000370: e874 07be 62e4 93be a83c 153e 4449 cfbe
00000380: 4051 b33d 935b 8fbe cbb8 203e 593e 9ebb
00000390: 16b2 933c 8c1e 173c f65c e9be b1ad 4cbe
000003a0: a4fa 5dbe deda ca3e 148d bf3c 4645 6e3e
000003b0: b179 3abf 6457 613d 08a8 973b 1c26 fb3d
000003c0: f241 13be 6032 d7be b78b 1d3d 5ba5 573e
000003d0: c126 2b3e cb70 0dbd 333a 1b3e ef09 f63d
000003e0: 66a7 3f3e eba0 ad3d 0c11 0cbe d694 443d
000003f0: 30df 013e 2b8b 343e 30ac 633e 730c 3fbe
0.22228314 0.24284405 -0.29230133 0.099556156 -0.1789878 0.17839876 0.07658562 -0.3687956
0.11469679 0.11161378 0.011182407 -0.33705673 -0.09585546 -0.6018975 0.17866948 0.15525694
-0.16802406 0.026503086 -0.2948366 0.18161248 0.16270845 0.20111422 -0.4053076 -0.04927675
0.15601581 0.15070704 0.032337848 0.38478267 0.1863053 0.19103795 0.104856096 0.07361184
0.08161245 0.23997071 -0.21198824 0.1021917 -0.3751273 -0.02040656 0.107321426 0.1962666
0.22705755 0.22060163 0.2591045 0.013329877 0.17103909 0.15263364 -0.23351575 0.18664503
0.15740152 0.042492926 0.2688017 0.048925642 0.13429709 0.055911183 -0.08779395 0.23329668
-0.13332859 -0.02987333 0.19125246 -0.052052706 0.018807411 0.017382743 0.093695894 0.11593331
-0.18657477 0.048752688 0.1181657 0.10375611 0.20485425 0.20508191 -0.081591494 0.21000336
0.23443107 -0.59471726 0.17337663 -0.2999314 -0.20653285 0.15806678 0.08232176 0.08844938
0.21408089 -0.09258914 -0.12925452 0.215306 -0.29068905 -0.27144265 -0.12449482 0.14719316
-0.107860476 0.04730981 -0.1274874 -0.24172452 -0.006588758 -0.26818594 0.13983981 -0.4844511
0.20819716 -0.25554517 0.17776059 0.09218475 -0.016872136 -0.076520674 -0.37481228 -0.29146624
-0.31813404 0.31816426 0.084670834 0.17451195 -0.7628302 0.109107785 -0.1031685 0.22722936
-0.08277673 -0.49307114 0.026211625 0.07090857 0.14228548 0.039223365 0.11538753 0.20334075
0.13207093 0.15524533 -0.064666234 0.16785362 0.24775878 0.15541388 0.12712286 -0.26251912
0.24049781 0.13387865 -0.24135023 0.18633755 -0.082550585 0.22996725 0.041283038 -0.39481705
0.18720885 0.1881594 -0.1012942 -0.4259933 -0.24444325 -0.53932154 0.1943517 0.07156967
-0.22964984 -0.02096783 -0.35886475 0.16218081 0.204294 0.18411778 -0.35517293 -0.050579015
0.10502527 0.07732531 0.047497295 0.41098243 0.13252021 0.19824359 0.12507315 0.17921963
0.122602 0.12763825 -0.2504814 0.11907139 -0.41224155 0.051356137 0.19294026 0.17115982
0.16227238 0.20401655 0.22916552 0.045249023 0.14879 0.21384211 -0.2089713 0.22704856
0.08803967 0.0021243317 0.16660336 0.15604909 0.25504285 0.07384901 -0.03011283 0.33433032
-0.015508653 0.026177308 0.21919589 -0.16894045 -0.03935256 0.07152597 0.08412242 0.11372349
-0.15021752 0.13526039 0.15838024 0.13711071 0.1450243 0.20910844 0.07613927 0.24361503
0.11278207 -0.65809083 0.026188089 -0.18036944 -0.09486849 0.18717791 0.0932141 -0.019909892
0.11834107 -0.07455618 -0.108148314 0.2293835 -0.22155881 -0.24655288 -0.23653302 0.03708824
-0.14876409 0.20002519 -0.08779449 -0.41696727 -0.1322819 -0.2888518 0.1457392 -0.40485585
0.087557316 -0.27999553 0.15695493 -0.0048292098 0.018029254 0.009223592 -0.45578736 -0.19988133
-0.21677643 0.39620107 0.023382701 0.23268613 -0.72841936 0.055014983 0.004628185 0.12263128
-0.14380625 -0.4203062 0.03846332 0.21059172 0.16714002 -0.034531396 0.1515892 0.120136134
0.18716201 0.08477958 -0.13678378 0.047993504 0.12682796 0.17631213 0.22233653 -0.18657093

net.1.2.bias f4 [256]
00000000: 9a81 953e 7072 963e 108a 81bd 06a4 fb3d
00000010: f02d 693e 38c3 d83d 3e6e 04bd 3423 873d
00000020: 6557 b4bd 37d1 263e adc5 5b3e ecd0 67bc
00000030: fe2f 463e 9431 cd3c a8c4 503e 8f15 69bd
00000040: 44d8 afbd 3ca7 1dbd 6e20 cbbd 8adc 7f3e
00000050: e354 933e d897 583d 0905 8a3e 9976 93bd
00000060: 58a2 c3bd a71d 8d3e 7831 d23d 155d 6b3e
00000070: d6be 413e 18e4 8e3e 4bd1 6bbd c51a 903e
00000080: b008 8b3e da73 2c3e 4cc7 733e f9cb 923d
00000090: 1653 ff3d 4b95 92bc 049e 4d3e 374c 5a3e
000000a0: 1b49 193e 65a2 373e 1abc 0b3e f62f 723e
000000b0: 6dab 1d3d 70b0 b1bc 1f1d 4b3e 80d6 bdbd
000000c0: a318 75bc d556 0abd ea7e 953d 9677 27bd
000000d0: 6493 513e b2e2 bf3d 629a 1f3e f38c d2bd
000000e0: 2626 433e 2b69 f33d 1acb 04bd 27eb 93bd
000000f0: 89ab 7a3d eaa4 203e 65db 063e 70b4 6dbd
00000100: 56ae 4c3d f93f a7bd 90f8 713e 8dbb 27bd
00000110: d468 053e 7d76 73bd 3b81 5f3e 500d 993e
00000120: be08 abbd 091a 8d3e 2b87 0d3d 6d99 873e
00000130: 7d05 2dbc 9cc0 5c3e 15a7 7c3e 6ffc e6bc
00000140: 10e7 5a3e d4d2 e7bc 6ffc 503e c4d9 0b3d
00000150: 23f5 5f3e 9e58 873e ebf0 00bb 0aa3 3c3d
00000160: a5ec 13bd 777c 583e 8470 893d 838e 09be
00000170: aac5 adbd 5648 34bd bcf2 eebd 2be6 dbbc
00000180: 212c 3e3d ef23 5e3c af6a 6e3d 80ce 043e
00000190: 2f0a 793d 22e2 023e 371b 62bd 9d81 213b
000001a0: 2725 903e 831c 5e3d f1ed 86bd 540a 093e
000001b0: 7284 63bd 8a3c a23d 550b a23d 1175 7ebd
000001c0: d020 0a3e 4673 f23d 7ace d63d cb9b 58bb
000001d0: 2257 60bd 2c54 c53c 2e95 36bd 9a6b 7e3e
000001e0: c262 563e 26c2 223e 87d5 7d3e 67f6 99bd
000001f0: b985 8a3b 277d cf3c 83c5 45bd 17e4 983e
00000200: 32da cabc d831 233e c2ce 503e f224 353c
00000210: 4a69 853e 4b42 2e3e 6d41 8f3e 7f9e 66bd
00000220: 4c6e 3c3d 58bb 7b3e 60f8 463e 3fa5 6b3e
00000230: a9d8 113e aa41 2b3e f10a 6a3e c716 863e
00000240: 555c bdbd 2e66 893e 8986 bb3d 6152 363e
00000250: 192c acbd 603a 983e e771 68bd 84ec 843e
00000260: 94c8 d4bc 21e9 a6bd 39b1 803e d69e 5a3e
00000270: 2ba3 f83d c5db b1bd 41c2 6abd 1afc a6ba
00000280: b18a 4e3e d9a1 823e 8b48 ce3c 2330 9a3e
00000290: d4cb 69bd b77d 603e 1d02 5f3e 0e7e 3b3e
000002a0: 7916 5a3e ee87 b7bb 1200 3d3c 9f0e 773e
000002b0: 454d 213d 994e 823e 7018 8e3e debf 3dbe
000002c0: c3e0 babd 1411 febb 4d7c 873e f3e2 efbd
000002d0: 4a21 623e cc86 9d3d cba7 2a3e bf69 6c3e
000002e0: 0831 143e 0038 1f3e 0df4 993e 8fa5 50bd
000002f0: 064a 2cbd ac97 8d3d 3806 513e d015 193e
00000300: ef15 bebb 4e11 bebd d9a8 8abd dc42 7e3d
00000310: ce64 4d3e fe6d 963e 7eb2 8fbd a668 cbbc
00000320: 3f43 0ebc d7c5 433e 08f5 9fbd 0e1d 493d
00000330: 3b3d 7c3b 0867 353e a0f1 1f3e 2d46 90bd
00000340: 4181 743e 60a6 853e c65c 7b3b 8635 f7bc
00000350: 08e5 fb3d e75f dbbd daa5 733c cfa5 9fbc
00000360: e87b 0f3e e88a 9b3e c6b0 583e 3d1b d8bc
00000370: 78db 7e3e a66a f43d db22 3e3d d110 2f3e
00000380: cd33 bfbd b2f5 6a3e cfeb 5fbd 7c58 8ebd
00000390: bed9 873e 4c89 fbbc 13ff 243d 4508 67bd
000003a0: 6038 963e 8dd3 2e3d f154 2e3e b669 9fbd
000003b0: 499f 4abd 1af9 743e 4748 e13d ae9c 953e
000003c0: eb05 5b3e b127 2dbd 37e7 0c3e 25a6 7fbd
000003d0: 6ed7 81bd f8d2 023d 12aa b3bd d8b2 aebc
000003e0: 3cac 663e af20 963e ed8b 673e 0574 9b3e
000003f0: fc52 f5bc 80c9 93bd 4b19 f23d 9762 9c3e
0.2920044 0.29384184 -0.063251615 0.12287144 0.2277143 0.1058411 -0.032331698 0.06598511
-0.08805732 0.16290747 0.21462126 -0.014148932 0.19354245 0.025048055 0.20387518 -0.056905326
-0.08586171 -0.038489565 -0.09918295 0.24986473 0.287757 0.052879184 0.26956967 -0.07200355
-0.09552449 0.27561685 0.10263342 0.22984727 0.18920454 0.27908397 -0.057572644 0.28145424
0.27155066 0.16841069 0.23806494 0.07167811 0.12467019 -0.017893454 0.2007981 0.21318136
0.14969294 0.17933042 0.13645974 0.23651108 0.038493562 -0.021690577 0.19835328 -0.09269428
-0.014959487 -0.033774216 0.072995976 -0.04088553 0.20466381 0.093694106 0.15586236 -0.1028079
0.19057521 0.118852936 -0.032420255 -0.07222586 0.061198745 0.1568791 0.1316963 -0.058033407
0.049970947 -0.08166499 0.23629975 -0.040950347 0.1302827 -0.05943917 0.21826641 0.2989297
-0.08351277 0.27558926 0.034552734 0.26484242 -0.010560391 0.2155785 0.24673112 -0.028196542
0.21377206 -0.028298773 0.20408796 0.034143224 0.21870856 0.26434797 -0.0019674848 0.046053924
-0.036114354 0.2114123 0.06710914 -0.1343327 -0.08484967 -0.044014297 -0.11667392 -0.026843151
0.046428803 0.013558372 0.05820721 0.12969398 0.060800727 0.12781575 -0.055201735 0.0024643906
0.28153345 0.05422641 -0.065883525 0.13382846 -0.05554623 0.07921703 0.07912318 -0.062123362
0.1348908 0.11838393 0.10488601 -0.0033051844 -0.054770596 0.024087988 -0.044575863 0.24845734
0.2093611 0.15894374 0.24788485 -0.07517701 0.0042273668 0.025328232 -0.048284065 0.2986152
-0.024762247 0.15936983 0.20391372 0.011056172 0.26056892 0.17017476 0.27979603 -0.056303497
0.046003625 0.24583185 0.19430685 0.23012255 0.14242806 0.16724268 0.22855736 0.26189253
-0.092461266 0.2683577 0.0915652 0.17804863 -0.084068485 0.29732037 -0.05674925 0.25961697
-0.02597455 -0.081499346 0.2513521 0.21349654 0.12140497 -0.08684496 -0.05731416 -0.0012739927
0.20170094 0.25514105 0.025181076 0.3011485 -0.05707915 0.21922956 0.2177815 0.18309805
0.21297635 -0.005600921 0.011535661 0.24126671 0.03938033 0.2545059 0.2775302 -0.18530223
-0.09124901 -0.0077535007 0.2646202 -0.11713209 0.22083011 0.07691726 0.1666557 0.23087214
0.14471829 0.15548706 0.30069008 -0.05093914 -0.04206278 0.06913695 0.20412529 0.14949727
-0.0058009545 -0.09280644 -0.067704864 0.06207548 0.20057985 0.29380792 -0.070164666 -0.024830174
-0.008683025 0.19118439 -0.07810408 0.049099974 0.0038488645 0.17715085 0.15619516 -0.07044635
0.23877431 0.26103497 0.0038354858 -0.03017689 0.122995436 -0.10711651 0.014871085 -0.019488243
0.1401211 0.30379415 0.21161184 -0.026380176 0.24888408 0.11934404 0.04641996 0.17096259
-0.09336052 0.22945288 -0.054668244 -0.06950471 0.26533312 -0.030705117 0.04028232 -0.05640437
0.29339886 0.04268222 0.1702459 -0.07783835 -0.049468312 0.2392315 0.11000114 0.292211
0.21388976 -0.04227418 0.13760076 -0.062414307 -0.06339918 0.031939477 -0.08772673 -0.021325514
0.2252664 0.2932181 0.22611971 0.30361953 -0.029946797 -0.072161674 0.118212305 0.30543968
